mlp_label2.pth (torch, 791791 bytes, 5 tensors)

model.0.weight f4 [256, 512]
00000000: 30fb 803c e9b3 d639 26bf 253d b3d2 d0bc
00000010: d2f2 8b3c 1332 063d b45c 163d 776e 033d
00000020: 5eb5 74bc 85dc 07bd fb32 21bd 0b93 e4bc
00000030: 4f48 1f3c def9 19bd 8b3c 15bd 73d4 30bc
00000040: 34c8 05bd e598 0a3d d46a 1bbd a4ab f23b
00000050: a6b2 263d 2b00 e0bc 2476 ab3c bb9e 2abc
00000060: ec21 f53c 6f4b 97bb 65d2 ddbc 7841 fbbc
00000070: caf6 01bd cc90 a63c 750d 863c e5f8 323c
00000080: 1a13 a43b 2616 7bbc cac1 1abc 4a76 9e3c
00000090: 3227 b33c 4850 4d3d 31df 9c3c 4ea4 89bc
000000a0: 2103 92bc d69f 1a3c 6c3b 80bb 2389 ab3c
000000b0: b537 863c 963f f13c d7df 01bd 0c82 913c
000000c0: 4e9b 62bb 0c2a 203d 985f a5bb f1d9 f33c
000000d0: ea44 273d cb8c 31bc 1398 d2bc f698 12bd
000000e0: b758 0d3c 2d67 1438 539f e33b eb7e 373d
000000f0: 26a4 263d 72e1 593b b4e1 1cbd 5efc 60bb
00000100: 4aa6 34bd cf48 6c3a 5276 833c dad5 eabc
00000110: 712c 8fbc ceca 63bd f768 273c bf8e 86bc
00000120: b7e1 aebc 9dee 2e3d 5217 d83c 649f f43c
00000130: b2ef 1abc 5912 0dbd 2798 4ebc 0bb7 1d3d
00000140: d275 22ba 461e 9f3b b54d 9e3c 4468 ecbc
00000150: c1ec f5bc 9ff4 e5bb 152b 12bb ae77 5a3c
00000160: 1c7d 253c 50b8 15bd 7c3a 0cbd a5fe 41bc
00000170: 91ca 49bc 4650 ccbc e83e 203d 2f0f 11bb
00000180: 92f5 0bbc 27dc ee3c 6041 24bb 69a9 11bd
00000190: 60d9 0cbd 1ed5 cebc 085c f63c a827 183d
000001a0: 8230 603c 10fe a5bc c662 213d 5b01 8dbc
000001b0: fcef 3b3b 9d94 583c 8421 f0bc 588c 7fb9
000001c0: 27ad 2e3b f799 15bd fde1 66bc 4d71 febc
000001d0: fe40 1dbb 6cd9 28bc eac5 a8bc 968d 073d
000001e0: 2c07 c4bb 73cd 463d 2aa8 293d 8b75 333d
000001f0: ed37 15bc b0ce 35bc f994 ae3c 756a cebc
00000200: 7e54 17bd 61dc 55bc f320 00bd 416f fdbc
00000210: 5603 28bc a50c 8fbc ebce 383b 5062 4c3d
00000220: 46d4 febc 57d5 f6bc cdf3 0abd 8fca f0ba
00000230: c32c 073c 2136 133d ac3b 303d 3412 263d
00000240: 7182 473d 4e9d 05bd 3051 933c db9a 2bbb
00000250: fe36 06bd 8082 49bd addc f23c 17d6 1e3d
00000260: 838a d7bc 7f67 423c e4f0 3fbd 5aff a13b
00000270: ea52 fb3c d544 bfbc b1df 0ebc 3119 2abd
00000280: 1073 403c 0efd ad3c 010a 81bc 331b 963b
00000290: 9205 273c 3ebd fdbc 6b71 9ebc 560e df3c
000002a0: 60f2 593c 27b2 96bc f652 7ebc 9df7 b6bc
000002b0: 6760 cc3c 7f05 ec3b 1ab7 3a3d 76a6 963c
000002c0: 17e9 f63b 09f7 0fbc 1187 98bc f116 17bd
000002d0: f772 34bd 6517 883b c8dc d23c 3139 713b
000002e0: 3d3d a5ba 1ca1 fb3c 2efb 2bbd fd87 533c
000002f0: 9b05 853a 1389 bdbc 4030 b23b 1f7e 74bb
00000300: dc3f d43c 9743 ae3c 0811 993b 1e32 8dbb
00000310: ceea 503d f0f4 00bd 9909 f9bc 0a53 cabc
00000320: a764 34bd 8d07 093c 4efb f93b deac 243d
00000330: 77e8 f3bc d5e6 913c 9b50 373d ea67 c33c
00000340: 1c67 d9ba a111 2d3d 6586 8e3c 350b 23bd
00000350: a6e3 0fbd 99fd 55bc a4e4 9cbc d035 5dbc
00000360: 4952 38bd c0c1 eabc 0dad f23c 7b9e 05bd
00000370: 43d8 003d c84d dabc f6ec b63c 0ea2 edbb
00000380: 8ff8 2f3d 6bd3 133d 3e2e 783c 1e4b 203d
00000390: 5be3 16bc 3c14 773a 3029 663b 6ad5 383d
000003a0: 3d92 0dbd 2d65 233c 472e bd3c f14d 963c
000003b0: 4dff a63b 0f69 093d 2884 023c 6bbe 27bc
000003c0: 39d2 033d a692 893c 2f7f 51bc ec78 b1bc
000003d0: f39b 87bc 7733 49bc aa54 a3bc 5a37 4cbd
000003e0: 6d21 213d 447d 1fbd 2fc7 e7bc eca3 1b3d
000003f0: ffaf 253c 6625 55bb cd2d 5bbc 430f 3a3d
0.015744776 0.00040951304 0.040465496 -0.025491094 0.01708356 0.0327626 0.036709502 0.03208777
-0.014935819 -0.03316929 -0.03935526 -0.027902147 0.00972183 -0.037591808 -0.03643469 -0.010792839
-0.03266163 0.033837218 -0.037943676 0.007405715 0.040697716 -0.02734383 0.020930357 -0.010413821
0.029923402 -0.0046171467 -0.027077863 -0.030670866 -0.031729497 0.020332716 0.016363839 0.010923599
0.00500716 -0.015325105 -0.009445617 0.019343514 0.021869276 0.05012539 0.019149395 -0.01680198
-0.017823758 0.009437522 -0.0039133336 0.020939415 0.016383985 0.029449265 -0.03170761 0.017762206
-0.0034577432 0.0391026 -0.005046796 0.029767008 0.040837206 -0.01083679 -0.02570728 -0.035790406
0.008627108 3.538204e-05 0.006946483 0.044798773 0.040683888 0.0033245948 -0.038301185 -0.003433011
-0.044103898 0.0009013535 0.01604763 -0.028666425 -0.017477246 -0.05561333 0.010217897 -0.016425489
-0.021347864 0.042708028 0.026378307 0.02986116 -0.009456562 -0.034441326 -0.012609518 0.03850464
-0.0006197366 0.004855904 0.019324163 -0.028858311 -0.03002012 -0.0070176865 -0.002230351 0.013334198
0.010100629 -0.036552727 -0.034235463 -0.011840497 -0.012316362 -0.024940621 0.039122492 -0.0022134294
-0.008542435 0.029157711 -0.002506338 -0.035561953 -0.034386992 -0.025248107 0.03007318 0.037147194
0.01368344 -0.020262748 0.03940084 -0.01721256 0.0028676977 0.013219026 -0.029312856 -0.00024370977
0.00266535 -0.036523785 -0.014091966 -0.031059885 -0.0023995037 -0.010305744 -0.020602185 0.03309401
-0.0059823003 0.048535775 0.04142014 0.04381327 -0.009107572 -0.011096641 0.02131127 -0.025197247
-0.036945812 -0.013053031 -0.031281423 -0.030936839 -0.010254702 -0.017462084 0.0028199505 0.049898446
-0.03110708 -0.030131025 -0.033923913 -0.0018370914 0.008250418 0.035940293 0.043025658 0.040544704
0.048708383 -0.03262072 0.01798305 -0.002618483 -0.03276729 -0.04919672 0.029646242 0.03877839
-0.026311165 0.011865496 -0.04686059 0.0049437704 0.030679185 -0.023348251 -0.008720324 -0.04152793
0.011746183 0.02123883 -0.01575184 0.004580879 0.010194199 -0.030974027 -0.019341191 0.027228516
0.013302416 -0.018395497 -0.015522709 -0.022334868 0.024948312 0.0072028036 0.045584776 0.018389922
0.0075351107 -0.008786925 -0.018619092 -0.036887113 -0.04405495 0.0041531795 0.025740042 0.003680777
-0.0012606751 0.030716471 -0.04198759 0.01291084 0.0010148765 -0.023136651 0.0054378808 -0.003730662
0.025909357 0.021272464 0.0046712197 -0.004308953 0.051005177 -0.03148359 -0.030400084 -0.0246978
-0.044041302 0.008363617 0.007628835 0.04020392 -0.029773934 0.017810265 0.044754606 0.023853261
-0.0016586515 0.04225314 0.017398069 -0.03980561 -0.03512921 -0.013060951 -0.019151993 -0.013501599
-0.04500035 -0.02865684 0.029623533 -0.032621842 0.031456243 -0.026648417 0.022329789 -0.0072519844
0.042961653 0.036090296 0.015147744 0.039134137 -0.009209479 0.00094253174 0.0035119765 0.045125403
-0.03456329 0.009972853 0.023093356 0.018347712 0.005096352 0.033547457 0.007966079 -0.01023827
0.032182906 0.01679356 -0.012786671 -0.021664105 -0.016553855 -0.012280337 -0.019937832 -0.049857475
0.039338518 -0.038937822 -0.02829322 0.037998125 0.0101127615 -0.0032523512 -0.013377619 0.04542471

model.0.bias f4 [256]
00000000: 0fb5 99bc f239 183d edd9 353d 3b72 07bd
00000010: 911e 24bd 552b 24bc 0434 ee3b af70 6ebc
00000020: 52a9 cc3c a2dd b4bc f33c 713c 2291 9e3c
00000030: f305 06bc 0753 91bc 35c5 e9bc 66b8 983c
00000040: 9b31 213c 2e31 27bd a618 483c 3ded 203d
00000050: b7f5 f43c c182 133d 9e83 083d da40 fdbc
00000060: 7e18 2d3d 2cc8 5a3b 09a6 2dbd afe8 e73b
00000070: d817 06bd e4b1 9a3b 7adf 243c 9a6b 893c
00000080: 5e85 bb3c bab4 09bd f666 13bd 2ca9 753c
00000090: 89de 14bc 4779 3bbd 1a3b 7bbc 0143 70bc
000000a0: 3a10 eaba 9f56 153d 03f8 08bc c706 a43c
000000b0: c4d0 c9bc 1d48 083d 5ede b2bc eb69 253b
000000c0: 8bda 043d 65ac 3dbc f6f6 6dbc 23a9 de3c
000000d0: 8faa ca3b 4c6c 8bbc 2fef bf3c 2708 323d
000000e0: d523 0a3c a783 413c 42a7 45bc 64a9 0f3d
000000f0: 9301 123d 8b78 dabc 07da 9fbc 4561 f23c
00000100: dc08 00bd dd79 4dbc 90b9 3f3c e594 a1bc
00000110: 668e aebc 52e4 033d f1da 99bc 8163 503b
00000120: e8b3 e1bc c641 25bc a49a c1bb 6e94 e0bb
00000130: 6e25 0bbd 57c3 2bbc 3d95 dc3c f780 f03c
00000140: b084 a13c 227d 09bd adf6 20bd 49c9 c53c
00000150: afd4 023c 59b8 1dbd 732b a5bc bd83 8d3c
00000160: 7f37 1bbd 6b99 37bd 1f1c 5f3b ba47 e13c
00000170: 9204 01b9 ab8e dd3c d36d 813c 197c 96bc
00000180: dd53 1e3d 667c 62bc 1bbe c03b d45a 0a3d
00000190: 69fc 36bc 7f0d 603c caf8 c2bc e505 54bc
000001a0: e417 b63c 523f 093d 87f0 21bd c7aa 1dbb
000001b0: 068f e53c ecb0 15bd 9ae2 4f3c 29dc f9bc
000001c0: 8599 0e3d 94d5 c33c eba6 00bd 48de 80bc
000001d0: eec1 31bd 4e55 f4bc 532d 22bd 0fb9 bebb
000001e0: 39a9 973c 2ede a03b f88a 1bbd b3de b2bc
000001f0: 3fa9 0ebc af84 a13c e65b 83bc 69d5 fbbc
00000200: a627 cdbc 79c4 ff3c cdc0 95bc 129e a6bb
00000210: 420e 9939 c9c4 27bd 077c fbbc 1fb2 1f3c
00000220: c49b c7bc e4e4 14bd 2488 c93b 18bf c2bc
00000230: fc8c 083d bc52 203d c8d9 583c a280 efbb
00000240: c5d6 f83c 5c5f 0539 35c4 ff3c 6598 a7bc
00000250: 1b84 3fbc 71a0 f33c 94e8 9fbc 434c 203d
00000260: 5c37 e43c e7a3 e43c f9c0 09bd 4a9d 1f3d
00000270: 445b 8b3c 116f bc3b fd4f ad3c 9707 30bd
00000280: 91cc 10bd 025f 213d e022 093d bad8 03bc
00000290: 8334 ecbc 2431 08bd 0bad 083d 3dbd db3b
000002a0: 517f bfbc f71a 12bd 30fd ffbc dd03 1f3d
000002b0: 49f0 0a3d d8db 1bbd 4f92 823b 67d1 323d
000002c0: 70c9 cabb f59b b0bc 543a 2a3d 7ea4 35bd
000002d0: 1080 fdbc 6561 153c 4d07 7d3c d581 95bb
000002e0: f5b4 973b 62b7 db3c b490 b63b 1cd5 cd3b
000002f0: 9130 af3c 64fe ed3c 7fe7 753c d37f 21bc
00000300: 5f86 1c3c f81b 703c 2d21 fcbb 8ff9 b8bc
00000310: 111c 133d 0fbd 0ebd ae4a 083c 5a9c 0d3d
00000320: a75a 71bc 9ee2 133c 8f20 883c 4475 b83c
00000330: a22e 13bd d713 723c beef b93c 2cbc 0a3d
00000340: d8a4 4b3c 5950 f8bc ae61 323d 16d3 133d
00000350: 3398 e4bb 316e 60bb 9b85 c0bb 2713 ab3c
00000360: 4f15 073d 0874 06bd 45fd 24bc a48b 44bc
00000370: 4fa5 bfbc 98dc 0fbb 4aa6 e43c df73 90bb
00000380: ddf7 323b a275 19bd 8a01 21bd fa07 0b3c
00000390: 965b 18bd 5b05 93bb 23e2 0f3d ef3b fe3c
000003a0: 3646 3a3c 1ecf e23c db78 16bd d162 10bd
000003b0: 1b48 16bd 869a 0c3d 52bd 2b3c 345c a8bc
000003c0: 52cb 27bc f860 f93c 619a be3c 7794 2bbd
000003d0: dafa 0f3b cfe9 b03c 8721 a0bc c713 703b
000003e0: 13f5 f6bc b4ae 34bc d6fe 503c df09 04bd
000003f0: fb24 b53b d082 e23b 4bd5 103d 4060 8abc
-0.018763093 0.037164636 0.044397283 -0.033067923 -0.040068213 -0.010020097 0.0072693843 -0.014553233
0.024983082 -0.022078339 0.014724004 0.019356314 -0.008180129 -0.017739786 -0.028536418 0.018642616
0.009838487 -0.040818386 0.012212908 0.039288748 0.029902322 0.03601337 0.033328645 -0.030914713
0.042259686 0.0033383472 -0.04239467 0.0070772986 -0.032737583 0.0047209132 0.010063047 0.016774941
0.022890743 -0.03361962 -0.035986863 0.014993947 -0.00908626 -0.045769956 -0.015333915 -0.0146644125
-0.0017857619 0.03645956 -0.008359912 0.020022763 -0.02463568 0.033271898 -0.021834549 0.0025240134
0.03243498 -0.011576747 -0.014524212 0.02718026 0.006184883 -0.017019413 0.023429481 0.043464806
0.008431395 0.0118111735 -0.012063803 0.035073653 0.035646033 -0.026668807 -0.019513143 0.029587397
-0.03125845 -0.0125412615 0.011701956 -0.019724319 -0.021308135 0.032200165 -0.018781157 0.003179759
-0.027551606 -0.010086482 -0.005908327 -0.0068536317 -0.033971243 -0.010483584 0.026926631 0.02935837
0.01971659 -0.0335666 -0.03929775 0.024143832 0.007985278 -0.038505886 -0.02016232 0.017274732
-0.037894722 -0.044824045 0.003404386 0.027500022 -0.00012304101 0.027045568 0.015799439 -0.018369721
0.038654197 -0.013823604 0.0058820373 0.033778027 -0.011168578 0.013675093 -0.023800272 -0.0129408585
0.022228189 0.033507653 -0.039536025 -0.002405809 0.0280223 -0.03654568 0.012688303 -0.030500488
0.034814376 0.023905553 -0.031409185 -0.015730992 -0.043397836 -0.029825833 -0.039594006 -0.0058204005
0.018513309 0.0049092984 -0.037974328 -0.021834707 -0.008707344 0.019716589 -0.016035032 -0.03074141
-0.02504332 0.031221615 -0.018280411 -0.0050847614 0.00029193057 -0.040959153 -0.03069879 0.009747057
-0.024366267 -0.0363511 0.0061502624 -0.023772761 0.03333758 0.0391414 0.013235517 -0.0073090354
0.030375848 0.00012719393 0.031221488 -0.02045841 -0.011689211 0.02973959 -0.019520082 0.03913523
0.027858429 0.027910186 -0.0336313 0.038968362 0.017011292 0.005750545 0.021156305 -0.04297599
-0.03535134 0.039397247 0.033480525 -0.008047277 -0.028833633 -0.03324999 0.03336815 0.0067059086
-0.023376139 -0.035670247 -0.031248659 0.038822044 0.03392056 -0.038051456 0.0039847265 0.043656733
-0.006188564 -0.021558741 0.041559532 -0.044346325 -0.030944854 0.009117459 0.015443635 -0.0045625963
0.004629726 0.026820842 0.005571449 0.006281508 0.021385463 0.029051967 0.015008806 -0.009857136
0.009553521 0.014655106 -0.0076943845 -0.022579936 0.035915438 -0.03484827 0.008318586 0.034572937
-0.014731086 0.009026198 0.016617088 0.022516854 -0.035933144 0.014775238 0.022697326 0.03387086
0.0124294385 -0.03031175 0.043550186 0.03608998 -0.0069761514 -0.0034245367 -0.005875302 0.020883156
0.032979306 -0.0328255 -0.01007015 -0.011996184 -0.023394255 -0.0021951552 0.027911324 -0.004408344
0.0027308383 -0.0374657 -0.03930811 0.0084857885 -0.03719672 -0.0044867224 0.03512777 0.031034438
0.011369279 0.027686652 -0.03673635 -0.03525049 -0.03668986 0.034327053 0.010482149 -0.020551778
-0.010241346 0.030441746 0.023266973 -0.041889634 0.0021969588 0.021595864 -0.019547237 0.0036632882
-0.030146157 -0.011027981 0.01275607 -0.032235976 0.00552809 0.0069125667 0.035359662 -0.016891599

model.2.weight f4 [256, 256]
00000000: b614 c73c 5995 c8bc 8780 b53c 78c1 293d
00000010: 88ef 35bd 58dd d9bc 2243 3ebc 1d7f 55bd
00000020: 6c2b 573d a894 5bbc 936b 3a3d 3447 82bd
00000030: 10e1 173c 2bc6 03bd 387f 2ebd 99db d6bc
00000040: ab2f e93c 5e30 743c 501d fb3b e9fa 253d
00000050: fdab 09bc bd43 48bd 1466 18bc 5ca2 523d
00000060: d84a 44bc a863 b1bc e8cc 67bd 2464 103d
00000070: e2af 4ebc 6569 1dbc e2f9 70bc 70ea b43c
00000080: 9670 703d b07d f0bb 6053 033b a884 06bc
00000090: 084c 36bd f512 763d a683 1e3d fb38 b9bc
000000a0: 304c afbb 1cc2 b73c 74c5 ccbc a6d3 d63b
000000b0: 9ad8 f33c 3358 0fbd 769e 153d b76b bbb7
000000c0: 8cd1 4b3d 4d6e 993c 1fb9 e43a adba 7d3b
000000d0: 65cc 133d d873 edbc 0379 683d 7b76 4b3d
000000e0: 9075 18bd d72d 67bc ae53 3a3d 0064 d23b
000000f0: 60ab b33b e0ed 78bc 5ae0 693d e438 fb3c
00000100: 8f07 3abd 74a8 e9bc 5678 7c3d ab79 793d
00000110: 2790 333d 80a7 393b 0ce6 2fbd 90e4 b2bc
00000120: 3a7d 4e3d 9af7 07bd d278 0e3d f0d5 9b3b
00000130: 0b6b 3abb c22a 353d 58ab 42bd da6a 3fbd
00000140: d3d0 c7bb 8264 0e3d 5db1 723d 1670 233d
00000150: 18dd a8bc ea3f 363d 9457 42b9 af8d 4cbd
00000160: 0911 a73c bc44 4b3d ecee 10bc 8ee0 7bbd
00000170: 5739 ce3c 90c5 86bc 371f 15bd 191b 64bd
00000180: 005c 283d d485 89bc ea05 67bd 06a0 8cbd
00000190: a257 34bd 20be 983c a8b9 41bd c364 b0bc
000001a0: 107d 5bbc 30b4 38bd 880a 1d3d 5557 e33c
000001b0: 048e 96bc d2f7 583d a044 60bb 1020 c3bb
000001c0: 589c 3fbd af60 57bc efd4 f5bc 5d9b d5bc
000001d0: b413 6cbd 4210 083d 0190 283b 06fd 5ebc
000001e0: a4b3 b1bc 677f 19bd 0c56 32bd d491 e1bc
000001f0: 68dc 3d3c 51e9 713d dce8 eb3c b023 a43c
00000200: 5457 65bd 7c95 09bd 51c7 0f3d de72 d1b9
00000210: 6b26 193d 9ca3 243d a860 d73c e1d8 2d3d
00000220: f827 37bc 6af9 1d3d b8c7 413d 7295 4a3d
00000230: d809 1e3d 2241 513d a40d e1bc d27f 183d
00000240: 20d7 ac3b c8d8 013c 66be a83c 1405 51bd
00000250: 00ac 303a 3c1d 00bd 3a84 3bbd 3b79 2c3d
00000260: bc01 87bc 2c58 41bd 2cb6 c13c 340b 16bd
00000270: 7c8e 6c3b c0ca 913a 4561 8bbd a645 f63c
00000280: 0896 893c f304 e33c d1b3 17bd f06d 86bc
00000290: e489 2abd f0e5 98bb 420e 76bd f3be 64bd
000002a0: bc61 a73c f963 ccbc bbae a23c 7843 34bd
000002b0: 0ad6 a03b 507c 34bd d0ed 9cbc ec5f a73c
000002c0: 2dcf 97bd 9636 823d 98f9 393d a53c 1c3d
000002d0: 846c 6a3d ea84 fcbc 9b37 7cbd 1c68 42bd
000002e0: f8b0 673c de64 123d 3082 b0bc e225 643d
000002f0: 80e9 abbb 59b2 a5bb 903e 41bd 1447 d13c
00000300: 5587 c4bc 8134 b13c 2037 6e3b 8a4d 2d3d
00000310: fc6d a23c 77af 05bc 0cb2 98bc a670 5ebd
00000320: 0920 94bc 9e90 093d e9e8 4c3d e75a 003d
00000330: 247b adbc a6fe b7bc 6255 7d3d 605f ea3b
00000340: f9f2 6f3c 3aa4 1f3d 417a 5f3d 1ce6 153d
00000350: f07c 5b3c ec46 83bc f0b6 553c 5117 223c
00000360: 3644 b8bc c071 0e3d 58a7 643b 28af 26bd
00000370: 64fc 663d b2ba 553d 5a6f 1ebd 7684 703d
00000380: 65b4 95bc 8814 3cbd e82c 763d 60ca 31bd
00000390: 4056 1a3b b3aa 51bc 90f1 153c b0e6 e6bc
000003a0: 8f78 af3c 6668 153d 8459 69bd 7efc 403d
000003b0: 1e1e 75bd c420 b9bc bc93 c53c 67c5 483d
000003c0: b088 6f3d 0839 3bbd fc9d 6f3d 3bf9 1cbd
000003d0: 5d25 23bd b071 a6bc 1212 84bd 44c6 b53c
000003e0: 4518 64bd 205e 3f3b f665 253d 755e ed3c
000003f0: fca2 283d b60d 75bd 785b 0a3c c0a5 c33c
0.024301868 -0.024485277 0.022156013 0.04144427 -0.044417888 -0.026594803 -0.011612685 -0.052123178
0.052531645 -0.013402142 0.045512747 -0.06361237 0.009269968 -0.03217141 -0.042601794 -0.02622776
0.028465113 0.01490411 0.0076634064 0.04052249 -0.008402822 -0.048892725 -0.009301681 0.05142437
-0.011980735 -0.021653965 -0.0565919 0.03525175 -0.012615176 -0.009607648 -0.014708014 0.022084445
0.05870112 -0.007339202 0.002003871 -0.008210339 -0.044506103 0.060076673 0.03869977 -0.022610178
-0.0053496584 0.022431426 -0.024996497 0.006555992 0.02976637 -0.034996223 0.036528073 -2.2342296e-05
0.049760386 0.018729353 0.001745019 0.0038716004 0.036083598 -0.028985903 0.05675603 0.04967354
-0.03722149 -0.01411005 0.04548996 0.0064206123 0.005483076 -0.015193433 0.057098724 0.030666776
-0.045417365 -0.028522708 0.0616382 0.060907047 0.043838646 0.0028328598 -0.042944 -0.021837503
0.050412394 -0.033195116 0.034783192 0.004755728 -0.002844515 0.04423023 -0.047526687 -0.04673276
-0.006097892 0.03476382 0.059251178 0.039901815 -0.020613238 0.044494547 -0.00018533907 -0.049939808
0.020393865 0.049626097 -0.008846026 -0.06149345 0.025173826 -0.016451627 -0.036406722 -0.055689905
0.041103363 -0.016787447 -0.056402124 -0.068664595 -0.044028886 0.018645346 -0.047296196 -0.021532422
-0.013396516 -0.045093715 0.03834012 0.027751604 -0.018378265 0.052970715 -0.0034220591 -0.00595475
-0.04677996 -0.01314561 -0.030008761 -0.02607506 -0.057635978 0.03321863 0.0025720599 -0.01361013
-0.021692105 -0.037475016 -0.043539092 -0.027535357 0.0115881935 0.0590604 0.02879756 0.020036548
-0.055991486 -0.033589825 0.035102192 -0.0003994917 0.037390154 0.040195093 0.026291206 0.04244316
-0.011178963 0.038567938 0.047309607 0.04945893 0.038583606 0.051087506 -0.027472325 0.037231274
0.0052746683 0.00792522 0.020598602 -0.051030234 0.0006739497 -0.03127788 -0.045780398 0.042107802
-0.01648032 -0.047203228 0.023646437 -0.036631778 0.003609567 0.0011123046 -0.06805662 0.030062508
0.016795173 0.02771232 -0.03703672 -0.016409844 -0.04163541 -0.0046660826 -0.06007219 -0.055846166
0.020432346 -0.024950014 0.019858709 -0.044009656 0.004908328 -0.044063866 -0.019156367 0.020431481
-0.074125625 0.06358068 0.045404047 0.038143773 0.057232395 -0.030825097 -0.061576467 -0.047462568
0.014141314 0.035740726 -0.021546453 0.05570019 -0.005246341 -0.005056661 -0.047178805 0.025546588
-0.023990313 0.021631481 0.0036348775 0.042310275 0.019827835 -0.00815951 -0.018639587 -0.05430665
-0.018081682 0.033585183 0.050026808 0.03133669 -0.021176882 -0.022460293 0.061849006 0.007152483
0.014645332 0.038974978 0.05455995 0.036596403 0.013396487 -0.01602503 0.013044104 0.009893254
-0.022493463 0.03477645 0.0034889784 -0.040694386 0.056393042 0.05218 -0.038680412 0.058720075
-0.018274495 -0.045918018 0.06010142 -0.04340589 0.0023549944 -0.0127970455 0.009151831 -0.028186172
0.021419792 0.036476515 -0.056970134 0.047115795 -0.059843175 -0.022598632 0.024118297 0.049016383
0.058479965 -0.045708686 0.058500275 -0.038323622 -0.039830554 -0.020317882 -0.06448759 0.022189267
-0.055687208 0.002920039 0.04038044 0.028975705 0.04117106 -0.05982753 0.008444659 0.023882747

model.2.bias f4 [256]
00000000: a037 0abd 3db4 8d3b ec7a 993c b532 eebb
00000010: 7a62 793d 0f58 88bc 2054 413b c28d 7fbd
00000020: e7df 5cbc e300 ef3b a9dc 72bd 62f3 4abd
00000030: b3bd b3bc fe4c 40bd 53d9 33bd 8457 7bbc
00000040: 37f5 d2bc 33df 213d 0ce0 42bb a016 a3bb
00000050: 1c20 653d b7e1 703d 7f29 37bc aa9e 483d
00000060: 3e0b f83c efdb f3bc d06d fb3b fe7c dcbc
00000070: 2396 88bc 819a 27bb 4fea 31bd e1e3 c53c
00000080: e9e4 33bd 88b5 3b3b 3eff 36bd 8565 5abb
00000090: 2f9b 773d 3d64 803d ea65 2dbd c8a8 613c
000000a0: 5634 603d b577 85bc 279f a73c e326 61bd
000000b0: fe69 84bd dd51 38bd 2711 743d 84a3 2a3d
000000c0: cdec 3bbc f8f5 77bd 9f80 533c b28e 7b3d
000000d0: a6b5 343b de72 643d 5b60 f43c 6837 e13c
000000e0: b7f7 ca3c 6560 ecbb 0c66 76bd b910 3dbd
000000f0: 091c 43bc e874 debc 6ed9 513d 04f5 c73b
00000100: d52d 95bb d3d9 81bd e661 d9bb 6b29 fcbc
00000110: 94dc a33c 72c9 49bd a060 8bbc 9eb6 48bd
00000120: b230 783d 2670 123c 993e 5b3d f78d 303c
00000130: f7cc 0ebd eac6 5cbd 8c1f 2dbd 6c75 1c3d
00000140: 1f42 483d a416 c6bb c41c 71bd eca1 05bd
00000150: a144 673c e4bc 96bc d8c8 f83c 376e 243d
00000160: fa1d 5c3d 277d deb9 4f82 893b 39aa 663b
00000170: a63b 793d 55c7 3fbd a8d7 2bbc 7d98 953c
00000180: f60d 95bc 11a0 8abb 9fda 353d 876f 4b3d
00000190: ae8f bc3c 1782 71bd d876 933c 751a 60bc
000001a0: a354 ac3c ccbd 7d3d 8be2 b33b caa9 31bd
000001b0: 1ba0 ae3c ab9d e7bb 6832 d63a dde5 4ebd
000001c0: 065a 843c bc02 4fbd bced ba3c 9d02 40bc
000001d0: bd73 173b 4814 d03c f682 d2bb 2433 55bd
000001e0: a244 393d 3db3 f83c cdb8 a93b 9ed7 47bc
000001f0: 8110 61bd e9d1 2f3d a827 513d 283c 7dbc
00000200: 2085 603c 89f7 4a3c 5bf5 a03c b2fb 473d
00000210: 831e ffbc 0122 413d 03d0 01bd 0dc5 b8bc
00000220: 964c acbc e5cf 77bc b71e e4bc 1c66 063b
00000230: 6eae 4e3d 6462 143c aa4b b3bc e540 053d
00000240: bf74 2c3d c5cc 393d f96e c43c f3f8 12bd
00000250: 35dd debc e666 f839 51e8 783c 9f82 793b
00000260: def8 1fbd b512 783c 8fb9 7abc 1e7f 81bd
00000270: 153b b6bc d362 313b 393b 593d df8a ed3c
00000280: 3003 513d e8f8 773d d27d 743c 0132 26bd
00000290: 166b 1ebc 5432 b0bc abe6 27bc 66f6 183d
000002a0: e04d 0bbc f205 afbc c5a1 703d 6e1c 1fbd
000002b0: 6ef0 6dbd a09e ae3c 9360 0b3c 459e fbbb
000002c0: facd 02bc 637b 62bd 8253 733d e14c aabc
000002d0: eb61 053d 67f7 8ebc 685d 6ebc 7f18 58bd
000002e0: 3c8b c9bc 8a60 383d f045 ecbb 38b7 eb3c
000002f0: 739c 2fbd 101e c73c 3ca8 acbc d3d4 73bd
00000300: 1f40 823d 40b8 063b a622 92bc 194e 48bc
00000310: cfe5 273d d007 5bbd 931c ad3c cb16 0c3c
00000320: 0409 05ba cd06 383c 6f47 7a3d bdc9 7fbd
00000330: f903 2e3d 85f1 8e3b a0d8 c43c ba40 d93c
00000340: 198a 3f3d 94cf bcbc a904 813d a61f 26bd
00000350: 27c5 3cbd c4df be3c 1855 613d 6a6a f83c
00000360: 1c15 c9bb 2393 223d f2fb 20bc ca76 51bd
00000370: acef 6dbd ca87 343d 0e91 02bd d447 90bc
00000380: 238a 233d 4163 40bd 46d3 793d 75b6 373d
00000390: c236 2ebd 3916 2f3d ae0a 533d 54ad f13c
000003a0: e1e4 343d e6e9 333d 24c7 f7bc a443 bc3c
000003b0: 8859 40bd ca90 3c3c 3e60 2dbd aa9c ce3c
000003c0: b1ca a6bc cea0 5f3c bad5 4f3d 07ae ef3c
000003d0: d4cb 683c b63f 57bc a52b 80bb cab0 27bd
000003e0: 1250 06b9 3a14 3e3d 147c 8fbc 789e 893c
000003f0: 2c4a 84bc 4557 573c e8c0 2fbc 0039 7a3c
-0.033744454 0.0043244646 0.018735372 -0.0072692283 0.06088493 -0.016643552 0.0029499605 -0.06239105
-0.013481117 0.007293807 -0.05929247 -0.049548514 -0.021941042 -0.046948425 -0.04390843 -0.01534069
-0.025751693 0.0395195 -0.0029735593 -0.0049770623 0.055938825 0.05880901 -0.011179327 0.04897944
0.030278798 -0.029767958 0.007673003 -0.02691507 -0.016673153 -0.002557427 -0.043436345 0.024156513
-0.043919478 0.0028642137 -0.04467701 -0.003332467 0.06045073 0.06269119 -0.04233352 0.013773151
0.05473741 -0.016292432 0.020461632 -0.054968726 -0.06465529 -0.044999946 0.05958667 0.041659847
-0.011470032 -0.06053731 0.012909084 0.06141538 0.0027574091 0.05577361 0.029831102 0.02749224
0.024776323 -0.0072136396 -0.060155913 -0.046158526 -0.01190854 -0.027155355 0.051232748 0.006102206
-0.0045525827 -0.06340375 -0.006633985 -0.030781468 0.02000264 -0.04926438 -0.017013848 -0.049002282
0.060593314 0.008937871 0.053526495 0.010776035 -0.03486344 -0.053900637 -0.042266414 0.03819792
0.048891183 -0.0060451794 -0.058865324 -0.032625124 0.0141154835 -0.018400617 0.030369207 0.04014417
0.053739525 -0.00042436385 0.004196442 0.0035196675 0.0608479 -0.046820957 -0.010488428 0.018261189
-0.018195134 -0.004230507 0.044397946 0.049666908 0.02301773 -0.058961954 0.018001005 -0.013678183
0.021036452 0.061948583 0.0054896525 -0.043374814 0.021316579 -0.007068356 0.0016341927 -0.050512183
0.016156208 -0.050539717 0.022818439 -0.011719373 0.0023109757 0.025400296 -0.006424303 -0.052050725
0.04523147 0.030358905 0.0051795007 -0.012197403 -0.05494738 0.042924795 0.05106321 -0.015456237
0.0137036145 0.012388119 0.019648245 0.04882402 -0.031142479 0.04715157 -0.031692516 -0.022554899
-0.021032613 -0.0151252495 -0.027846677 0.002050764 0.050459318 0.009056661 -0.021886665 0.03253259
0.042103525 0.0453613 0.023978697 -0.035881948 -0.02720509 0.0004737891 0.015192107 0.003807224
-0.039055698 0.015141179 -0.01530303 -0.06323074 -0.02224497 0.002706696 0.053034995 0.028996883
0.05102843 0.06054011 0.014922576 -0.04057503 -0.009669086 -0.021508373 -0.010247867 0.03734436
-0.008502454 -0.02136514 0.058748025 -0.038845472 -0.05809062 0.021315873 0.008506912 -0.0076787793
-0.007983679 -0.055293452 0.05940581 -0.020788612 0.032564085 -0.017451955 -0.014548637 -0.052757736
-0.024602525 0.04501394 -0.0072104856 0.028773889 -0.04287381 0.024306327 -0.021076314 -0.059529137
0.063598864 0.00205566 -0.017838787 -0.012225651 0.040990647 -0.053474247 0.02113179 0.008550356
-0.0005074891 0.01123209 0.06110328 -0.062448252 0.042484257 0.0043622875 0.024029076 0.026520122
0.04676256 -0.0230482 0.06299717 -0.040557526 -0.046086457 0.02330006 0.055012792 0.03032418
-0.0061365496 0.0396911 -0.009825693 -0.051138677 -0.058089897 0.04407481 -0.031876616 -0.017612375
0.03992666 -0.046969656 0.0609925 0.04485174 -0.04253269 0.042745803 0.051523857 0.029501595
0.04416359 0.043924235 -0.030246325 0.022981472 -0.046960384 0.01150913 -0.04232811 0.025221188
-0.020360323 0.013649179 0.050740935 0.029257787 0.014208753 -0.013137748 -0.003911453 -0.040940084
-0.00012809064 0.04640601 -0.01751522 0.016799197 -0.01614865 0.013143365 -0.010727145 0.015272379

model.4.weight f4 [1, 256]
00000000: 7dc7 a13c 7c59 c53d b064 9abb 9332 6a3d
00000010: 849a c73d e31b ddbd d4f3 e2bc 1a51 753d
00000020: d87f bd3d 49a4 59bd a13e 7fbd 8e75 77bd
00000030: da49 a23d 8ff8 d23d 3720 9d3d 7aa6 6ebd
00000040: b96d 57bd a27a d8bd fb66 babd 60d8 8f3c
00000050: c4a2 9b3c 1ad3 b13d 8fef 6fbd fc1f a43c
00000060: 02df bfbc 004f b43d 286a 553c daa4 783b
00000070: 1990 f5bd 7f3e b53d 0482 963d 7e53 85bc
00000080: fe4b 333d 8add 8f3d 8844 923d 287e b9bd
00000090: 4bab de3d 9fef 923d 7020 013e 4479 3b3d
000000a0: abc7 dabc 03b9 623d 077c 253c 6f76 59bd
000000b0: 49c8 f3bc 569f e03d b369 9c3d ec55 a83d
000000c0: cf40 753d 2ffe f5bc a4d5 76bd 8b63 b03d
000000d0: e732 d53c 9ab4 e83d 8a52 d2bd 9535 e2bd
000000e0: 02c6 cdbd b1e0 6cbd fe71 12bd 77b7 c1bd
000000f0: 5bf0 223d 80ce afbb e91d 803c 514a d43c
00000100: d7c2 dcbd 08d2 45bd 75b1 8c3d 375c cebd
00000110: 8f3e bcbd 3446 a83c 7346 6abd 46cf c5bd
00000120: 5dbf c1bd 4cb7 df38 7334 aebc c7b3 d3bd
00000130: 67f9 e23d 8578 cbbd 00d2 25bd 1182 3bbd
00000140: 313d 2b3d 843e e13d 0024 27bb 5a44 37bd
00000150: 8e60 203d a63e 9dbd a092 1abd c234 3e3d
00000160: 3685 c4bd e318 9c3d 82e0 08bd 20b7 f5bd
00000170: 8b4a a9bd c53f e03d 229c 163d 9560 9cbd
00000180: 3771 bfbd b358 c4bd 0527 f5bb 863e d53d
00000190: bf1a f8bb a75f b83d 40f7 ee3c 80fb 20bc
000001a0: 780b 25bd 1eef e03d 2f7d e73d 6119 c6bd
000001b0: 54a7 7abd 27cc b3bd 8280 7a38 d7a0 e23d
000001c0: 7ab9 78bc 9bc5 3abd d94a df3d 9591 9a3d
000001d0: 70e0 6abd 2327 ba3d beab 4abc 249b 383d
000001e0: 68eb aabc 0737 85bd 41d2 6e3d 3fc4 413d
000001f0: ff0d e2bd be21 cebd 49e3 ebbb 4caa 4cbc
00000200: 18b0 043c 4dff e63d 7d86 b83d a09d 7cbd
00000210: 00c3 cbbd a471 4dbd c874 d8bc 1bd5 84bc
00000220: 04c6 b93d c8b8 a53d a570 2cbd 9ee6 c53d
00000230: e67c 48bd 4c7c dabd 64e6 663d a40a 893d
00000240: 78dd a2bd 1078 cbbd c25d 98bd b0b6 aabd
00000250: 82d0 b5bd 792a 96bb 6bb6 653d a8ae efbc
00000260: 9e97 4f3d 946e a43d ee71 5fbd 78e0 a13a
00000270: a3cd b1bc 549b 90bd 109f 8e3d d31a 513c
00000280: ec52 bc3d 861a acbd 6869 9dbd a37e 29bd
00000290: 8fec 68bd 602f ad3d 0584 f7bd c47c b83c
000002a0: 7431 2e3d 434f 01be 57da 593d b00f a4bc
000002b0: a87c 383d 6c22 a2bd 2f60 353d 7ba5 57bd
000002c0: 6ec4 bb3d 0c5b a7bd f98b c8bd 44cb 02bc
000002d0: 6b18 e93d 6f96 de3d 23c9 d4bd f3e3 813d
000002e0: c885 e53d 07fa 01bd d8eb 5abd 9a49 3dbd
000002f0: 8d62 d0bd b1d5 5dbd f265 763d d805 c63d
00000300: 3701 903d 8841 3f3c e1fd e7bc 06c7 a13d
00000310: 68e4 d5bd 0ca2 08bd c9e0 a8bc 2ffd f43d
00000320: dda2 d1bd fb49 933d a5c4 8fbd 48b3 1abc
00000330: dbe2 dabd 781a 963d dd31 62bd 673f a13d
00000340: 8122 8ebd 70ea 85bc 531a babd a099 073c
00000350: 91fa e83b ccd0 b93c 2c84 db3c e622 a9bc
00000360: 3eb7 28bd e9fd f23d efad e23d e07e 81bc
00000370: 26f4 3cbd 8ee7 863d 52a8 2bbd 68e3 4d3c
00000380: cee3 e1bd 1a0b ffbd 8ee4 3ebd 84b4 e63d
00000390: 0ce0 b9bc 08b4 013d 70f8 8b3d d04f 9cbd
000003a0: 14d2 903d e8e0 df3c 58aa c83c 44e3 953d
000003b0: c4f6 0cbd 09f9 d03c 580e 583c dcab 3e3d
000003c0: 165e 473c 849b b6bd 83e7 9abd 03a2 c8bd
000003d0: 9f4f 7dbd df35 35bd 218b 553d f4f0 cd3c
000003e0: 4b9f 38bd d088 4abd 4d7d 8cbd f407 59bd
000003f0: 00fe 89bd 7015 663d 3e07 63bd accf 99bd
0.019748444 0.096362084 -0.00471171 0.057177138 0.097462684 -0.107963346 -0.027704157 0.059891798
0.092529 -0.05313519 -0.062315587 -0.060414843 0.07924242 0.10301315 0.0767216 -0.058264233
-0.052594874 -0.10570265 -0.09101673 0.01755923 0.018998511 0.086828426 -0.05857807 0.020034783
-0.023421768 0.088041306 0.013025798 0.0037940056 -0.11990375 0.08849811 0.07349017 -0.016275164
0.043773644 0.07024677 0.071419775 -0.090572655 0.10872515 0.0717461 0.1261003 0.045769945
-0.026706537 0.055352222 0.010100371 -0.053091463 -0.02975859 0.10967891 0.07637348 0.08219513
0.05987626 -0.03002843 -0.060262337 0.08612736 0.026025249 0.11362572 -0.10269649 -0.11045376
-0.100475326 -0.05783147 -0.035753243 -0.09458821 0.039780002 -0.005365193 0.015639262 0.025914343
-0.1077935 -0.048296005 0.06869785 -0.10076182 -0.091916196 0.020541288 -0.05719609 -0.09658675
-0.09460328 0.0001066761 -0.021265244 -0.10337024 0.11082726 -0.09935097 -0.040483475 -0.045778338
0.041806404 0.10998252 -0.0025503635 -0.04474292 0.03915458 -0.07677965 -0.03773749 0.046437033
-0.095957205 0.07621934 -0.033417232 -0.11997819 -0.08266171 0.10949663 0.036769994 -0.07635609
-0.09347766 -0.095872305 -0.007481458 0.10412316 -0.0075715478 0.09002619 0.029170632 -0.009825587
-0.04029414 0.10983108 0.11303174 -0.096728094 -0.061194733 -0.08779173 5.9724327e-05 0.11065834
-0.01518094 -0.045598608 0.10902948 0.07547299 -0.057342947 0.09089496 -0.012370048 0.04506983
-0.020864204 -0.06504636 0.058305983 0.047306295 -0.11037826 -0.100650296 -0.0071987254 -0.012491774
0.008098625 0.112791635 0.090100266 -0.06167376 -0.09949303 -0.050157204 -0.026422873 -0.016214898
0.090709716 0.08091885 -0.042099614 0.09663127 -0.048947237 -0.10668239 0.05637206 0.06691483
-0.07952398 -0.099350095 -0.07439758 -0.08335626 -0.0887766 -0.0045827 0.05608217 -0.029258087
0.050681703 0.080289036 -0.05455201 0.0012350222 -0.0217045 -0.070608765 0.069639325 0.012762743
0.091955036 -0.084034964 -0.0768612 -0.041380536 -0.056866225 0.08456302 -0.120857276 0.02252043
0.04252763 -0.12627892 0.05318674 -0.020027012 0.045040756 -0.07916722 0.04428118 -0.05264805
0.09168325 -0.08171663 -0.09792323 -0.007983033 0.113816105 0.10868537 -0.10389926 0.06342306
0.112071574 -0.031732585 -0.053447574 -0.04621277 -0.10175047 -0.05415887 0.060155816 0.09669083
0.07031482 0.011673339 -0.028319301 0.07899289 -0.10443956 -0.033357665 -0.020614998 0.119623534
-0.10236142 0.07191845 -0.07019929 -0.009442158 -0.106878005 0.07329267 -0.055223335 0.07873421
-0.06940175 -0.01634714 -0.09087052 0.008276373 0.007109948 0.02268257 0.026796423 -0.020646524
-0.04119038 0.11864836 0.110683315 -0.015807569 -0.046131276 0.06587134 -0.04190857 0.012566425
-0.110297784 -0.12453289 -0.046604685 0.112648994 -0.022689842 0.03166583 0.06834495 -0.076324105
0.07071319 0.027328923 0.024495289 0.07318738 -0.03441502 0.025509374 0.013187014 0.046550617
0.012168428 -0.08916381 -0.075636886 -0.09796526 -0.06184351 -0.04424083 0.052134637 0.02513931
-0.04507379 -0.04944688 -0.06859837 -0.0529861 -0.067379 0.05617279 -0.05542683 -0.075103134
