mlp_label1.pth (torch, 791791 bytes, 5 tensors)

model.0.weight f4 [256, 512]
0	0x3d14ced8	0.036330074
1	0xbc3b3158	-0.011425339
2	0x3d1b81bb	0.037965517
3	0xbbc40c93	-0.0059829443
4	0x3cb479e4	0.022030778
5	0x3ce0b0fd	0.027428145
6	0x3d2380ad	0.039917637
7	0xbd564d27	-0.052319672
8	0xbc1cc090	-0.009567395
9	0x3d0bb3fd	0.034107197
10	0xbc8285fa	-0.015933026
11	0x3ab64414	0.0013905787
12	0x3d2f9847	0.042869832
13	0x3cd359f7	0.025799735
14	0xbba67f56	-0.0050810976
15	0x3d5842fa	0.05279825
16	0x3d69f59f	0.05711901
17	0x3d3b5f79	0.045745347
18	0x3c8c1a05	0.01710225
19	0x3dc14d7b	0.09438606
20	0xbd597f76	-0.05310007
21	0x3d966092	0.07342638
22	0xbd8923b2	-0.066962615
23	0xbd3801ac	-0.04492347
24	0xbd6bb1ae	-0.057542495
25	0x3c4b78ca	0.012418935
26	0xbcbbde09	-0.022933023
27	0x3c51e722	0.012811454
28	0x3c5a8076	0.013336292
29	0x3c5f9b84	0.013647918
30	0xbca85ef4	-0.02055309
31	0x3d0d6454	0.03451951
32	0x3d0e7b05	0.03478529
33	0xbbe61b7e	-0.0070223203
34	0xbd7302c7	-0.05932882
35	0x3c50a97a	0.012735719
36	0xbd41f159	-0.047349308
37	0x3d544949	0.051827703
38	0x3cb02cbc	0.021505706
39	0x3d259708	0.040427238
40	0x3db5e996	0.088824436
41	0x3ba6b5cf	0.0050875912
42	0x3d1b9043	0.037979376
43	0x3c907a3a	0.017636407
44	0x3d62fc0a	0.055416144
45	0xbd200015	-0.03906258
46	0xbbdec6bb	-0.006798593
47	0xbd0cbe58	-0.034361213
48	0xbccd003f	-0.025024531
49	0x3c715c4d	0.014731479
50	0x3bf1453a	0.007362989
51	0x3d532e8a	0.051558055
52	0x3cf106a1	0.029422106
53	0x3ccb4a4e	0.024815705
54	0x3cff2425	0.031145165
55	0x3d0633d9	0.03276429
56	0x3cdc62f1	0.026902648
57	0x3d41c990	0.047311366
58	0xbd071e96	-0.032988153
59	0xbbf7767e	-0.007551967
60	0xbcd9bba4	-0.026578732
61	0xbc4cf93d	-0.012510595
62	0x3c0f868b	0.008760105
63	0x3c6b275e	0.014352648
64	0x3cbb25ed	0.022845233
65	0xbc9b18d7	-0.018932743
66	0xbca8e683	-0.020617729
67	0xbd0b3dfe	-0.033994667
68	0xbcbace9c	-0.022803597
69	0xbcc2caad	-0.023778284
70	0xbc06a7ca	-0.008218715
71	0xbd3f3bda	-0.04668794
72	0xbc3ce7d1	-0.011529879
73	0xbd271a5b	-0.04079662
74	0x3cb0baa2	0.021573368
75	0x3c20d7b1	0.00981705
76	0xbd11e97e	-0.035623066
77	0x3cd209c6	0.025639426
78	0x3c9449c8	0.018101588
79	0xbc8bcd15	-0.017065564
80	0xbd2fe47e	-0.042942517
81	0x3cdd7931	0.027035328
82	0xbb1b4240	-0.002369061
83	0xbd13b469	-0.036060724
84	0xbd6beaf7	-0.057597127
85	0xba0683bf	-0.0005131326
86	0x3d000f4a	0.03126458
87	0x3b2bf879	0.002624063
88	0x3d1b45de	0.037908427
89	0xbc9459fc	-0.018109314
90	0xbd6f712d	-0.058457542
91	0x3c23aa67	0.009989358
92	0x3d585869	0.05281869
93	0xbce5965d	-0.0280258
94	0xbca0950c	-0.019602321
95	0xbb51bb38	-0.003200246
96	0x3d105fa7	0.03524747
97	0xbd246ca6	-0.040142678
98	0xbcc0d71d	-0.023540074
99	0xbcabf716	-0.020991843
100	0x3c9d856f	0.019228665
101	0x3d27ef60	0.04099977
102	0xbd60c5e7	-0.054876234
103	0xbc550a20	-0.013002902
104	0x3d2951d3	0.0413378
105	0x3c229f28	0.009925641
106	0x3c842453	0.016130602
107	0xbd67b51b	-0.0565692
108	0x3c422493	0.01184954
109	0x3bbd0502	0.0057684192
110	0xbcdaa9f2	-0.026692364
111	0xbd6b3883	-0.05742694
112	0x3dd2393c	0.10264823
113	0x3c785c26	0.015158689
114	0x3cfaa99c	0.030598454
115	0x3c5e800b	0.0135803325
116	0x3d69aec7	0.057051446
117	0xbd4030b6	-0.046921454
118	0xbda2ff35	-0.07958833
119	0xbd3cc124	-0.04608263
120	0x3d09e2ec	0.033663675
121	0x3cd70e7d	0.026252026
122	0x3d44a428	0.048008114
123	0xbd5f812d	-0.05456655
124	0xbca961fa	-0.020676602
125	0xbd030e81	-0.031996254
126	0x3ba9064b	0.005158221
127	0xbbd699d3	-0.006549099
128	0xbcecc2a0	-0.028901398
129	0xbc68c57a	-0.014207238
130	0x3cfda11d	0.030960614
131	0xbc86cfdc	-0.016456537
132	0x3d2ca591	0.042150084
133	0xbce23cad	-0.027616823
134	0xbd64b590	-0.055837214
135	0xbd682b6e	-0.056682043
136	0x3d246f1f	0.040145036
137	0xbcffb907	-0.031216158
138	0x3cb5b0dd	0.022179062
139	0xbd0d859b	-0.034551244
140	0xbb4ce650	-0.0031265207
141	0x3c07b8f1	0.00828384
142	0xbbff06db	-0.0077827997
143	0x3c98296a	0.018574435
144	0xbd1f447c	-0.03888367
145	0xbd6e213c	-0.058137164
146	0x3cc6701a	0.024223376
147	0x3d32f752	0.043692894
148	0x3cce71d0	0.025200754
149	0xbb88f9a2	-0.004180149
150	0x3c2ae3ab	0.010430257
151	0xbd3e7dcb	-0.046506684
152	0xbd4a16e7	-0.049338248
153	0x3d029b0a	0.031886138
154	0xbcf033e3	-0.029321617
155	0xbc040390	-0.00805749
156	0x3d610276	0.054933988
157	0xbcca7f75	-0.02471898
158	0xbc4ec158	-0.012619339
159	0xbc38da69	-0.011282542
160	0x3cb49ef6	0.022048455
161	0x3ddc0923	0.1074393
162	0xbcaba6d2	-0.02095357
163	0x3c61defd	0.013786075
164	0x3d16bac8	0.036799222
165	0xbb11594a	-0.0022178465
166	0xbd228d09	-0.039685283
167	0xbd0270ba	-0.031845786
168	0xbc2e560b	-0.010640631
169	0xbce8a83e	-0.028400537
170	0x3cb5e1c0	0.022202373
171	0xbd12676e	-0.03574317
172	0x3a75757e	0.0009363516
173	0xbcd15ada	-0.025556017
174	0xbd7176aa	-0.058951057
175	0xbd1dec7b	-0.038555603
176	0x3c5551c5	0.013019984
177	0x3d58f94e	0.05297213
178	0x3c68e65d	0.014215079
179	0xbdc7992f	-0.09746014
180	0x3d34468f	0.044012602
181	0x3d1bbc5e	0.038021438
182	0xbbf5d4aa	-0.007502158
183	0x3c49a339	0.012306982
184	0xba218897	-0.0006162016
185	0xbbf62745	-0.0075120055
186	0x3c81931f	0.015817223
187	0x3aa5662b	0.0012618949
188	0x3c56b047	0.013103551
189	0xbdf01349	-0.11722428
190	0x3d383210	0.04496962
191	0xbb6b5f1f	-0.003591485
192	0xbd0685d6	-0.03284248
193	0x3bbeb24a	0.0058195936
194	0xbcd44b98	-0.025914952
195	0xbd1951f1	-0.03743166
196	0x3d145d0a	0.03622154
197	0x3ca9b045	0.020713935
198	0xbb96b864	-0.004599618
199	0x3d173f97	0.03692588
200	0xbcdd2a81	-0.026997807
201	0x3d829446	0.06375937
202	0x3d4e4110	0.050355017
203	0xbbdd8866	-0.0067606447
204	0x3d20ea6b	0.03928606
205	0x3c1037c5	0.008802359
206	0xbd56af85	-0.052413482
207	0xbd7e8aed	-0.06214421
208	0xbcafea43	-0.02147401
209	0xbaf6dd0e	-0.001883419
210	0x3d648ca1	0.055798177
211	0x3bf51718	0.0074795596
212	0xbbab7b39	-0.005233195
213	0xbd31398a	-0.043267764
214	0xbd892842	-0.06697132
215	0xbc117fc8	-0.008880563
216	0x3c9a91e1	0.018868389
217	0x3d00998b	0.03139643
218	0x3d27ae3d	0.04093765
219	0x3ce45388	0.027871862
220	0xbcac283b	-0.021015277
221	0x3c94d504	0.01816798
222	0x3d23c617	0.039983835
223	0x3d0400c1	0.03222728
224	0x3dc13450	0.09433806
225	0xbd63cd2c	-0.05561559
226	0xbc5967b3	-0.013269353
227	0xbbbc735a	-0.0057510557
228	0x3c298c86	0.010348445
229	0x3d978154	0.07397714
230	0x3c6b73ae	0.014370842
231	0x3d1061b5	0.03524943
232	0x3c9ffa27	0.019528462
233	0x3c2f36b0	0.010694191
234	0xbc314a7c	-0.010820981
235	0xbccec4d4	-0.02524034
236	0xbbdabd67	-0.0066754106
237	0x3d1b03e0	0.037845492
238	0x3abc6d56	0.0014375846
239	0x3cfc3451	0.030786665
240	0x3bdac3a5	0.0066761547
241	0xbcd9ec73	-0.026602006
242	0xbcdf1ba0	-0.027234852
243	0xbb4f9222	-0.0031672795
244	0x3b88d000	0.004175186
245	0xbc68bb66	-0.0142048355
246	0x3d02858c	0.03186564
247	0xbc9ca389	-0.019120948
248	0x3c65993d	0.014013586
249	0x3ccf7d36	0.02532826
250	0xbd16c8c6	-0.036812566
251	0x3d93281a	0.07185383
252	0xbb8a36de	-0.0042179665
253	0x3d96c054	0.073609024
254	0xbd190db2	-0.037366576
255	0x3c1b72b4	0.009487797

model.0.bias f4 [256]
0	0x3c8bfa3a	0.01708709
1	0x3c17bb58	0.009260975
2	0x3bf4b6b3	0.0074680685
3	0x3b097e5b	0.0020979855
4	0xbc94c378	-0.018159613
5	0x3cf7cf69	0.030250268
6	0xbcd53d8d	-0.026030326
7	0xbcfd3351	-0.030908259
8	0xbc87efd7	-0.016593857
9	0xbc92d700	-0.017924786
10	0xbc990608	-0.018679634
11	0xbb53ac5d	-0.0032298781
12	0xbcce66d2	-0.025195513
13	0xbd2c6a90	-0.042093813
14	0x3d0b0b58	0.033946365
15	0x3c251c1a	0.010077501
16	0x37e49bb6	2.7252227e-05
17	0xbc5a81b0	-0.013336584
18	0x3d24136b	0.04005758
19	0xbc0c567a	-0.0085655395
20	0x3c66e4c7	0.014092631
21	0x3d144d08	0.036206275
22	0xbcc11b8f	-0.023572711
23	0x3d3ec04b	0.046570104
24	0x3ba94c21	0.005166546
25	0xbceb8619	-0.028750466
26	0xbd075254	-0.0330375
27	0xbcc4bbe7	-0.02401538
28	0xbc8b7177	-0.017021878
29	0xbd38c9d6	-0.04511436
30	0xbbce1977	-0.0062896567
31	0xbcacad9c	-0.021078877
32	0xbccae4db	-0.02476733
33	0xbc3738d8	-0.011182986
34	0x3d278b0c	0.04090409
35	0xbc8e5a71	-0.01737711
36	0xbd098c8c	-0.0335813
37	0xbc7d4655	-0.015458663
38	0x3c4308f4	0.01190399
39	0xbcfc336f	-0.030786244
40	0x3ccf7023	0.025322026
41	0x3cbf7b21	0.023374142
42	0xbcfc5acf	-0.03080502
43	0x3c5d46ca	0.013505647
44	0xbbd57879	-0.0065146056
45	0xbc8b81bc	-0.017029636
46	0x3c2c7961	0.010526986
47	0xbc4e014e	-0.012573553
48	0xbc0f3b80	-0.008742213
49	0xbcd02d38	-0.025412187
50	0x3c7413b8	0.014897279
51	0xbad31026	-0.0016102835
52	0x3d04b1be	0.03239607
53	0x3cd35d12	0.025801215
54	0xbcd9d504	-0.026590832
55	0x3cb611a9	0.022225218
56	0xbc89c72c	-0.016818605
57	0xbc2dabfb	-0.010600085
58	0xbccfbd2e	-0.025358763
59	0xbd0b29ed	-0.03397553
60	0x3a5eb3ac	0.0008495401
61	0x3c39585b	0.0113125695
62	0xbd100bb1	-0.0351674
63	0xbd16665c	-0.03671871
64	0x3d3080e6	0.043091677
65	0xbcd90cf0	-0.026495427
66	0x3c9947f8	0.018711075
67	0xbc1d9e26	-0.009620225
68	0xbcef78ed	-0.029232467
69	0xbc667a53	-0.01406725
70	0x3c24bb3b	0.010054405
71	0xbc0d44f0	-0.008622393
72	0x3d0093eb	0.031391066
73	0x3b65a6fa	0.0035042153
74	0xbd08b2d6	-0.033373676
75	0x3c9815ca	0.018565077
76	0x3d311527	0.043233063
77	0xbcd85a5f	-0.02641028
78	0x3b8ee8be	0.004361241
79	0xbcca439c	-0.024690442
80	0xbcd9c477	-0.02658294
81	0x3d1546ca	0.036444463
82	0xbcf2250a	-0.029558677
83	0x3be5cacb	0.0070127
84	0x3cf6ca6f	0.030125825
85	0xbc815060	-0.015785396
86	0x3cc7d63a	0.024394143
87	0xbb14d579	-0.0022710247
88	0x3d3cddef	0.04611009
89	0x3d1bc955	0.038033802
90	0x3d0c3549	0.034230504
91	0xbc4f01be	-0.012634693
92	0x3d15ad94	0.03654249
93	0xbc823f3b	-0.015899291
94	0x3cacff15	0.021117726
95	0xbc8e4280	-0.017365694
96	0xbd05b2b7	-0.03264114
97	0x3c90d441	0.017679336
98	0xbd115bb9	-0.035487864
99	0xbb86a643	-0.0041091754
100	0x3d0557c4	0.032554403
101	0xbd0498da	-0.032372333
102	0xbd10491d	-0.035225976
103	0xbd06b016	-0.032882772
104	0xbc8df903	-0.017330652
105	0x3d161c36	0.036647998
106	0xbc000677	-0.007814041
107	0x3d1c9a64	0.038233176
108	0x3bba8e4f	0.005693234
109	0xbcf3217f	-0.029679058
110	0x3ca9d5d6	0.020731848
111	0xbc033265	-0.00800762
112	0xbc07499e	-0.008257298
113	0x3c8e36ee	0.017360177
114	0x3ca56267	0.020188523
115	0xbc941aa5	-0.018079111
116	0xbbd25860	-0.0064192265
117	0x3c2afa7f	0.0104356995
118	0xbb0a6ff0	-0.002112385
119	0xb9360ed2	-0.00017362394
120	0xbbf00229	-0.0073244763
121	0xbd1057a5	-0.035239834
122	0xbce26e1b	-0.027640393
123	0xbd0b9cd8	-0.034085125
124	0xbd253030	-0.04032916
125	0xbbca8e59	-0.00618152
126	0xbc4e22a4	-0.012581501
127	0x3cb2c41c	0.021822028
128	0xbd0b04ff	-0.03394031
129	0xb9b13fbf	-0.00033807565
130	0x3d0c528a	0.034258403
131	0xbd1b688b	-0.037941497
132	0xbcdb835b	-0.026796034
133	0xbd1f2456	-0.038853012
134	0xbce938fb	-0.028469553
135	0xbd132f32	-0.03593368
136	0x3cfc041a	0.030763675
137	0xbc8b327f	-0.016991852
138	0x3c6e8fcf	0.014560654
139	0x3b95ef28	0.004575629
140	0x3cf089ad	0.029362524
141	0xbb931126	-0.0044881282
142	0xbc9cea1e	-0.019154605
143	0xbcb44876	-0.022007208
144	0x3cbea5d1	0.023272427
145	0x3c89201b	0.016738942
146	0x3c1dd979	0.009634369
147	0x3cd84400	0.026399612
148	0xbcfd32b3	-0.030907964
149	0xbc53d454	-0.012929041
150	0xbd2675ef	-0.040639814
151	0xbd259ecd	-0.040434647
152	0xbcfcec6b	-0.030874452
153	0xbb768906	-0.0037618293
154	0x3cd02b72	0.025411341
155	0xbd0d30ce	-0.034470372
156	0x3c9bcc97	0.019018454
157	0xbc856602	-0.016283993
158	0x3bb310e6	0.005464661
159	0xbd180783	-0.03711654
160	0x3c1a2554	0.009408314
161	0x3d225ee7	0.039641287
162	0x3cadebf9	0.021230685
163	0x3c27bcb2	0.01023786
164	0xbc88074d	-0.016605044
165	0xbbaa227f	-0.0051921005
166	0xbcb637a8	-0.022243336
167	0xbb88de55	-0.0041768947
168	0x3bcdb6a9	0.0062778783
169	0x3a3ceb15	0.0007206661
170	0x3ba896d9	0.0051449356
171	0x3b927547	0.004469547
172	0x3d3591ad	0.04432838
173	0x3cddf9e2	0.027096692
174	0xbbfb9eb0	-0.007678829
175	0x3c4c8eee	0.012485249
176	0xbcfca709	-0.030841367
177	0x3cd09ed6	0.025466364
178	0xbd229bf8	-0.039699525
179	0xbca80477	-0.020509942
180	0xbcd93746	-0.026515614
181	0xbcfbfe93	-0.030761039
182	0x3d01c95b	0.03168617
183	0x3d0abdf3	0.033872556
184	0xbc43a8e9	-0.011942127
185	0xbcdde85f	-0.027088342
186	0xbc3be41f	-0.0114679625
187	0x3c85f33f	0.01635134
188	0x3c6fdadb	0.014639582
189	0xbd1abca0	-0.037777543
190	0x3cc899a1	0.024487318
191	0x3cc2818b	0.023743412
192	0x3c8e0c01	0.017339708
193	0xbbd8b094	-0.0066128466
194	0xbc8deda5	-0.017325232
195	0x3d047ecf	0.032347497
196	0xbbdc3fa2	-0.006721453
197	0xbcb03d4c	-0.021513604
198	0xbca57568	-0.020197585
199	0x3d37da29	0.044885788
200	0x3d0d9123	0.03456224
201	0x3c8bf6ae	0.0170854
202	0xbcb47787	-0.022029651
203	0xbcc0ec4e	-0.023550179
204	0xbcbfacb5	-0.023397783
205	0x3c61aa18	0.013773464
206	0x3c3759ff	0.01119089
207	0xbc0019fa	-0.007818693
208	0xbc686868	-0.014185049
209	0x3d047b65	0.03234424
210	0x3d052842	0.032509096
211	0xbc13bd71	-0.009017334
212	0x3d174e70	0.03694004
213	0x3d2ecdd2	0.042676754
214	0xbcca3b24	-0.024686404
215	0x3ce9b001	0.028526308
216	0xbca8028e	-0.02050903
217	0xba2837dd	-0.00064170157
218	0xbd1bcae5	-0.038035292
219	0xbcf81ced	-0.03028723
220	0xbc092439	-0.008370453
221	0x3d26d823	0.040733468
222	0x3d216b74	0.039409116
223	0x3c67b8a4	0.014143143
224	0xbd11992d	-0.03554647
225	0xbd2b034d	-0.041751195
226	0x3c2304b0	0.009949848
227	0x3c8c8537	0.017153366
228	0xbcf0fd37	-0.029417617
229	0x3b97d0ad	0.0046330304
230	0xbbd2b0db	-0.006429774
231	0xbc69f57d	-0.01427972
232	0xbd1b50e7	-0.03791895
233	0x3cd6a86a	0.026203353
234	0x3c96f9cb	0.018429657
235	0xbcd92123	-0.026505059
236	0xbcb52df6	-0.022116642
237	0x3beaf2ca	0.007170056
238	0xbcce9d50	-0.025221497
239	0xbd242e82	-0.040083416
240	0xbcc82084	-0.024429567
241	0xbcca7489	-0.024713771
242	0x3b92907c	0.0044727903
243	0x3ae7dd41	0.001768984
244	0xbaf0eea8	-0.0018381672
245	0xbaaceda8	-0.0013193386
246	0xbcf059de	-0.029339727
247	0x3cc298ee	0.023754563
248	0xbcd55c35	-0.026044944
249	0x3c5931ba	0.013256485
250	0x3c742755	0.014901956
251	0xbc7d34a6	-0.015454447
252	0x3d2b994b	0.04189424
253	0xbc6d888d	-0.014497888
254	0x3d2750e4	0.040848628
255	0xbcb64123	-0.022247856

model.2.weight f4 [256, 256]
0	0xbcc2151c	-0.023691706
1	0x3d3c44ba	0.04596398
2	0xbc18cde0	-0.009326428
3	0xbcea6821	-0.028614106
4	0x3cf71c48	0.030164853
5	0xbcfe03f0	-0.031007737
6	0xbd7db23e	-0.061937563
7	0x3b525240	0.0032092482
8	0xbc5473e8	-0.012967087
9	0x3c880748	0.016605034
10	0xbd0fcf47	-0.035109784
11	0x3bc5d7c4	0.006037684
12	0x3d0d6e17	0.034528818
13	0xbd1871ef	-0.03721803
14	0x3a8c2972	0.0010693504
15	0x3c63c600	0.013902187
16	0xbab845a9	-0.0014058846
17	0x3cee1e08	0.029067054
18	0x3d33a104	0.04385473
19	0xbd700c4c	-0.058605477
20	0x3cea9794	0.028636731
21	0xbd769e10	-0.060209334
22	0xbd02dce4	-0.03194894
23	0x3d36f90d	0.044671107
24	0x3c4c34b1	0.0124637345
25	0xbd07d8be	-0.033165686
26	0xbd23a838	-0.039955348
27	0x3cb60857	0.022220774
28	0xbb6b0fab	-0.0035867493
29	0x3c44d1fb	0.012012954
30	0xbd84eeb7	-0.06490844
31	0x3cd9e78c	0.026599668
32	0x3d322ed2	0.043501683
33	0xbd228ee1	-0.03968704
34	0xbd57ea31	-0.052713577
35	0x3c109b90	0.0088261515
36	0xbd0ebbe8	-0.03484717
37	0xbd43d1be	-0.047807448
38	0xbd44261f	-0.047887918
39	0xbd28f8cc	-0.041252896
40	0xbc632ba0	-0.0138653815
41	0x3ca3da44	0.020001538
42	0x3c31f420	0.010861427
43	0x3d583c40	0.052791834
44	0x3cef6301	0.029222013
45	0xbd659a82	-0.056055553
46	0xbd473c96	-0.048641764
47	0xbd2e1daa	-0.04250876
48	0xbcc8384a	-0.024440903
49	0xbcbf549f	-0.02335578
50	0xbc29da98	-0.010367058
51	0x3d2a4884	0.041573063
52	0xbd3325de	-0.043737285
53	0xbb998908	-0.004685525
54	0x3cf6a810	0.030109435
55	0x3cacf6e6	0.021113824
56	0xbd586bf2	-0.05283732
57	0xbced5a74	-0.028973795
58	0xbd031330	-0.03200072
59	0x3d491fb2	0.049102493
60	0x3bb19ef7	0.0054205614
61	0x3ccd04a0	0.02502662
62	0x3c2fac59	0.010722243
63	0xbd169bbc	-0.036769614
64	0x3cdfefa4	0.02733595
65	0xbc14d847	-0.009084768
66	0xbd00226f	-0.03128284
67	0xbc83a6ab	-0.016070684
68	0x3d24dfc9	0.04025248
69	0xbcce570e	-0.025187995
70	0xbd7e83f4	-0.06213756
71	0x3d62100e	0.055191092
72	0xbd0bf98b	-0.03417353
73	0xbccd65a4	-0.02507288
74	0x3ced3ecc	0.028960608
75	0xbc7b4b00	-0.015337706
76	0xbcff224c	-0.031144284
77	0x3aee5ac0	0.0018185005
78	0xbcc2b7a8	-0.023769215
79	0xbd2b2edf	-0.041792747
80	0xbd5ced95	-0.053937513
81	0xbce518e0	-0.027965963
82	0xb7ce21ee	-2.4572913e-05
83	0x3b2fa992	0.0026803953
84	0xbab31580	-0.0013663024
85	0xbcb4054c	-0.021975182
86	0xbd347ab6	-0.04406234
87	0xbd5f6be8	-0.054546267
88	0x3d5c96fe	0.053854935
89	0x3d536ff0	0.051620424
90	0xbd0c40be	-0.03424143
91	0xbd65b74c	-0.05608301
92	0xbd479c9a	-0.04873333
93	0xbc961db1	-0.018324705
94	0x3c0f5f2e	0.00875072
95	0x3d7306fc	0.059332833
96	0x3d0fb197	0.035081472
97	0x3cd73229	0.026269035
98	0x3d5493ab	0.05189864
99	0xbd63bfce	-0.05560284
100	0xbd7e7345	-0.06212165
101	0xbcd51e32	-0.026015375
102	0x3cbf76e3	0.02337212
103	0xbc579950	-0.013159111
104	0xbc7f6ef0	-0.015590414
105	0xbcbd7fe0	-0.023132265
106	0x3adec7c0	0.0016996786
107	0xbd003b14	-0.03130634
108	0xbbd474dd	-0.0064836578
109	0x3d5b0850	0.053474724
110	0xbca55aa6	-0.020184826
111	0x3b608463	0.0034258596
112	0xbd283872	-0.041069455
113	0x3bcba820	0.0062151104
114	0x3d59583e	0.05306267
115	0x3c98a51c	0.018633418
116	0x3cd7b378	0.026330695
117	0xbc184161	-0.009292931
118	0xbc6d7edf	-0.01449558
119	0x3d28345a	0.04106555
120	0x3d6940ff	0.05694675
121	0x3d1359cc	0.03597431
122	0xbd65915c	-0.05604683
123	0xbcf160d0	-0.02946511
124	0x3d68baf6	0.056818925
125	0xbd6b7424	-0.057483807
126	0x3d505386	0.050860904
127	0x3cfd2d59	0.030905413
128	0xbc80e04d	-0.015731955
129	0xbc857037	-0.01628886
130	0x3c280838	0.010255866
131	0x3d113ae8	0.035456568
132	0x3d12981e	0.0357896
133	0xbd54c2b5	-0.0519435
134	0xbcec3e68	-0.028838351
135	0xbb8020a0	-0.003910139
136	0x3d61f2e0	0.055163264
137	0xbcb2b1d0	-0.021813303
138	0xbd66f806	-0.056388877
139	0x3bb72270	0.005588822
140	0x39c43a56	0.00037427497
141	0xbcd059bc	-0.025433414
142	0x3d390c32	0.045177646
143	0x3d5540d2	0.05206377
144	0x3cf2e4de	0.029650148
145	0xbc361248	-0.011112757
146	0x3d34dd32	0.04415626
147	0x3d50dd2a	0.05099217
148	0xbc03f470	-0.008053884
149	0xbc4dde98	-0.0125652775
150	0x3c24e960	0.010065407
151	0xbb919dc0	-0.004443854
152	0x3c7c7b18	0.015410207
153	0xbc0d3519	-0.0086186165
154	0x3d009e54	0.031400993
155	0xbcbd2b28	-0.023091868
156	0xbbd81830	-0.0065946802
157	0x3d03254e	0.032018
158	0xbd090d0a	-0.0334597
159	0x3c35f350	0.0111053735
160	0xbc64a78b	-0.013955961
161	0x3d224bdf	0.039623138
162	0x3cb0cdf5	0.021582583
163	0x3d532e3e	0.05155777
164	0xbd05ea19	-0.032693956
165	0x3c628768	0.013826229
166	0xbc5ad388	-0.013356097
167	0x3cd10da4	0.0255192
168	0xbd44fd84	-0.048093334
169	0xbd81105e	-0.0630195
170	0xbd08b534	-0.033375934
171	0x3cf047a0	0.029331028
172	0xbccc57da	-0.024944235
173	0xbd34a8fe	-0.044106476
174	0x3d1e01ca	0.038575925
175	0xbd84d685	-0.06486229
176	0x3ca99cec	0.020704709
177	0xbd3f7db6	-0.046750747
178	0x3d6cf793	0.057853293
179	0xbd2f05a7	-0.04273
180	0xbd42f4cc	-0.047596738
181	0xbc96311c	-0.018333964
182	0xbd37cb70	-0.044871747
183	0x3d70bdf8	0.05877492
184	0xbc4bc5da	-0.012437308
185	0x3bdd9bd0	0.006762959
186	0xbd35d0a4	-0.04438843
187	0xbc5cefc4	-0.013484899
188	0x3cd75884	0.026287325
189	0xbd6b8a46	-0.057504915
190	0x3d68eb52	0.056865044
191	0x3a8fc400	0.0010968447
192	0xbcd28568	-0.025698379
193	0xbbe83a1d	-0.007087006
194	0x3d1254ee	0.035725527
195	0xbce8e64c	-0.028430127
196	0xbbf3cf70	-0.0074405
197	0xbc4182cd	-0.0118109705
198	0xbcba50e7	-0.022743655
199	0x3ce2d66a	0.027690131
200	0x3cadc730	0.021213144
201	0xbd0050e5	-0.031327147
202	0x3c63780a	0.0138836
203	0xbd423b20	-0.047419667
204	0xbca028a2	-0.019550625
205	0x3cb11062	0.021614257
206	0x3d14a3ca	0.036289014
207	0x3d397417	0.045276728
208	0x3d373c4a	0.04473523
209	0xbd5a46f3	-0.05329032
210	0x3cf658ec	0.030071698
211	0x3d518aea	0.05115787
212	0xbd864eab	-0.065579735
213	0x3cc95d30	0.024580568
214	0xbc5fd8f0	-0.013662562
215	0xbd0c8652	-0.034307785
216	0xbc6d3965	-0.014479016
217	0xbd508e40	-0.05091691
218	0x3d37fefe	0.044920914
219	0xbc6d08ea	-0.014467457
220	0x3d731ff2	0.059356637
221	0x3d5887f8	0.052864045
222	0xbc6e8750	-0.014558628
223	0xbb3dd643	-0.0028966821
224	0x3ce0a966	0.027424525
225	0xbd0cda56	-0.03438791
226	0x3c72d8a9	0.014822164
227	0x3d33ea10	0.04392439
228	0x3d6c1b7a	0.05764339
229	0xbd605676	-0.054769956
230	0xbcf6e6f2	-0.03013942
231	0x3d3d67d8	0.04624161
232	0xbd487dba	-0.048948027
233	0xbd3e2441	-0.046421293
234	0x3d25e940	0.040505648
235	0x3d2f843e	0.042850725
236	0x3d584394	0.052798823
237	0x3d2521c9	0.040315423
238	0x3d5264e8	0.051365763
239	0x3d77ca24	0.06049551
240	0xbba77680	-0.005110562
241	0x3cd9747a	0.026544798
242	0x3af321fa	0.0018549555
243	0x3cb460ea	0.022018868
244	0xbab19900	-0.0013549626
245	0x3c115ce0	0.008872241
246	0xbcf0f38c	-0.029413007
247	0x3d4d34b4	0.05009909
248	0xbd006338	-0.031344622
249	0xbd6f6914	-0.05844982
250	0x3cb23328	0.021752909
251	0x3d5ed67f	0.05440378
252	0xbd8408de	-0.06447004
253	0xbcec3768	-0.028835014
254	0x3cd2d650	0.025736958
255	0xbd0a664e	-0.03378897

model.2.bias f4 [256]
0	0xbd02455c	-0.031804428
1	0x3d0498cf	0.032372292
2	0xba97e904	-0.001158983
3	0xbd74872c	-0.059699222
4	0x3d173402	0.036914833
5	0xbd1360d3	-0.03598101
6	0xbd11fb78	-0.03564021
7	0x3cf022d8	0.02931349
8	0xbd68a01d	-0.05679332
9	0xbcdf8435	-0.02728472
10	0x3cbb5b94	0.022870816
11	0xbd5612b6	-0.052263938
12	0xbd6db884	-0.058037296
13	0xbcd86dea	-0.026419599
14	0x3d1a54c8	0.03767851
15	0x3d1b708c	0.03794913
16	0x3cc156d5	0.023600975
17	0x3ccb9d18	0.024855182
18	0x3d5b1462	0.053486235
19	0x3caed840	0.02134335
20	0xbd4ee759	-0.0505136
21	0x3d71b9c8	0.059015065
22	0x3a7cab80	0.00096385926
23	0xbd34165a	-0.04396663
24	0x3d353d97	0.04424819
25	0xbc1417c4	-0.009038869
26	0xbc1f40b0	-0.009720013
27	0x3cf184f9	0.029482352
28	0xbd14358f	-0.03618389
29	0x3d54956e	0.05190032
30	0x3cdc3c52	0.026884232
31	0x3d5d619a	0.05404816
32	0xbd6c22f4	-0.05765052
33	0x3d42df4d	0.047576237
34	0x3cc5e568	0.024157241
35	0xbd4589f3	-0.04822726
36	0x3c8e0398	0.017335698
37	0xbd0d5c6e	-0.034511976
38	0xbce5eed5	-0.028067986
39	0x3c590020	0.013244659
40	0xbd0b4d7a	-0.034009434
41	0xbd623577	-0.05522677
42	0x3d0e637c	0.034762844
43	0xbc85dedd	-0.016341621
44	0x3cf2497f	0.029576061
45	0x3d39fbbf	0.0454061
46	0x3c8b0a1f	0.0169726
47	0x3d3b4829	0.045723114
48	0xbcb76056	-0.022384804
49	0xbd00a654	-0.031408623
50	0xbc153da0	-0.009108931
51	0xbd578bf6	-0.05262371
52	0x3ceee8a8	0.029163674
53	0x3d257e62	0.04040373
54	0x3c81be8e	0.015837934
55	0x3cd01635	0.025401214
56	0xbce25f94	-0.027633466
57	0x3ce52394	0.027971067
58	0x3d810e84	0.06301597
59	0x3d1e4d9c	0.038648233
60	0x3d6a7cec	0.05724804
61	0xbd3f3b3c	-0.04668735
62	0xbd51e43a	-0.051243044
63	0x3c6ef4a8	0.014584698
64	0x3985adb1	0.00025497147
65	0x3ca11f2c	0.019668184
66	0x3ca555c7	0.020182503
67	0x3c645950	0.013937309
68	0xbccd8ef5	-0.025092581
69	0x3d0c229d	0.034212697
70	0x3d5fc1f2	0.05462832
71	0xbc817f79	-0.015807854
72	0xbd1d4f05	-0.038405437
73	0x3d2126ef	0.03934377
74	0xbca908d3	-0.02063409
75	0xbc3fa424	-0.011696849
76	0xbd3ef55f	-0.046620723
77	0x3b0639ee	0.0020481306
78	0xbc405538	-0.011739068
79	0x3d28b3b8	0.04118702
80	0xbd2d2dee	-0.04228013
81	0x3cfda47e	0.030962225
82	0xbd1e14ec	-0.03859417
83	0x3cef848a	0.029238004
84	0xbc9f2816	-0.019428294
85	0x3d73de7d	0.059538353
86	0xbd4c28f6	-0.04984375
87	0x3cff0667	0.031130983
88	0xbd511e75	-0.051054437
89	0x3c10c7cd	0.008836699
90	0x3ba31a00	0.0049774647
91	0x3bc5f1ad	0.006040773
92	0xbcf7b329	-0.030236797
93	0xbd3fce50	-0.046827614
94	0x3d67428e	0.056459956
95	0xbd3d9172	-0.046281286
96	0xbd3cee1c	-0.046125516
97	0xbc93f2f8	-0.018060192
98	0xbab2ed17	-0.001365098
99	0x3d3ffb3e	0.046870463
100	0x3d60f361	0.054919604
101	0xbd598700	-0.05310726
102	0xbd524f1d	-0.05134498
103	0xbd1743b0	-0.036929786
104	0x3cbf7be1	0.0233745
105	0xbd57d869	-0.05269662
106	0xbceffb42	-0.029294614
107	0x3d23e0ee	0.04000943
108	0xbd17eda8	-0.03709188
109	0x3c807d34	0.015684702
110	0xbd7191d0	-0.05897695
111	0xbd4fba21	-0.050714616
112	0xbb22e69d	-0.0024856695
113	0xbcc0c769	-0.023532586
114	0x3c915eec	0.017745458
115	0x3d4dad78	0.05021426
116	0x3d493f01	0.04913235
117	0xbc95544b	-0.01822867
118	0x3d1d28d4	0.038369015
119	0xbca523fb	-0.020158758
120	0x3c7f81c6	0.015594905
121	0x3985b421	0.00025501943
122	0xbc2a5c7d	-0.0103980275
123	0xbb095534	-0.0020955326
124	0x3c3205c3	0.0108656315
125	0x3bf8dca6	0.0075946627
126	0x3cd5edcf	0.026114373
127	0x3c9ff5c7	0.019526375
128	0xbc97bbb4	-0.018522121
129	0xb983f700	-0.00025170296
130	0xbc8a5f8a	-0.01689126
131	0x3b1db211	0.0024062435
132	0xbd001f34	-0.031279758
133	0xbd386196	-0.04501494
134	0x3d3aee32	0.045637317
135	0xbcbaa25f	-0.022782503
136	0xbc00c0a8	-0.007858433
137	0x3b9f1dff	0.0048558707
138	0x3d68f1bb	0.056871157
139	0x3d36465f	0.044500705
140	0xbd3041b9	-0.043031428
141	0xbd789d57	-0.060696926
142	0x3d78c66c	0.060736105
143	0xbcf9448f	-0.0304282
144	0x3d59762e	0.05309122
145	0xbc561ad7	-0.013067923
146	0xbd56c083	-0.052429687
147	0x3cf953be	0.03043544
148	0x3bd306a3	0.00644
149	0xbd4d5675	-0.05013128
150	0x3d7e2cda	0.062054493
151	0x3d6ccd0f	0.057812747
152	0x3d2b28f1	0.04178709
153	0xbd089df6	-0.03335377
154	0x3c3faab4	0.011698414
155	0xbd7c261b	-0.061559778
156	0xbd7a6665	-0.061132807
157	0x3d591742	0.053000696
158	0xbc0fa4a4	-0.008767281
159	0x3c52bc7a	0.012862319
160	0x3cef779a	0.029231835
161	0x3d32f045	0.04368617
162	0x3d479c98	0.048733324
163	0xbd4e416f	-0.05035537
164	0xbd56af88	-0.052413493
165	0x3d02a2af	0.03189343
166	0xbcb96bd5	-0.022634426
167	0xbd24cd44	-0.04023482
168	0xbc5c5adf	-0.0134494
169	0xbbc72220	-0.006077066
170	0xbd4a4b32	-0.049388118
171	0x3c8bcb57	0.017064733
172	0xbd35b919	-0.044365976
173	0xbc70458c	-0.014665019
174	0xbacf18c6	-0.001580023
175	0x3be1377f	0.0068730707
176	0xbcab1415	-0.0208836
177	0x3bb626e0	0.0055588335
178	0x3d4db6bd	0.0502231
179	0x3c181dc4	0.00928444
180	0xbd269f6f	-0.04067939
181	0x3d427641	0.047476057
182	0x3d6b7bd9	0.057491157
183	0xbc965150	-0.01834932
184	0x3c85dc70	0.016340464
185	0xbc896150	-0.016770035
186	0x3ce8a440	0.028398633
187	0xbbdd0b95	-0.0067457655
188	0x3bfa4c52	0.0076384926
189	0xbccc2a5c	-0.024922542
190	0xbd08039f	-0.03320658
191	0xbcdfe759	-0.027331995
192	0x3d806188	0.062686026
193	0x3bdcb7e0	0.006735787
194	0xbd55a84a	-0.052162446
195	0x3cce2e0c	0.025168441
196	0xbcbc0504	-0.02295161
197	0xbd6fb193	-0.058518957
198	0x3d48df1c	0.0490409
199	0xbcea19a0	-0.028576672
200	0x3c02b52e	0.007977767
201	0xbd807389	-0.062720366
202	0x3bf0cc10	0.007348545
203	0x3d5b078a	0.053473987
204	0x3d13b68a	0.036062755
205	0xbc73fcd0	-0.014891818
206	0xbd211266	-0.039324187
207	0xbd1dc8e2	-0.038521655
208	0x3cdc3cb4	0.026884414
209	0x3c0cbe75	0.00859033
210	0x3b051ea5	0.0020312455
211	0xbc153498	-0.009106778
212	0x3d3c034d	0.045901585
213	0x3c62b492	0.013836997
214	0x3d80c72f	0.06287991
215	0xbd2f2506	-0.042759918
216	0xbd1da2c3	-0.0384853
217	0x3d61672f	0.055030044
218	0xbb1d0a00	-0.002396226
219	0x3d4f439d	0.05060159
220	0xbd4fb441	-0.050709013
221	0xbc458c58	-0.012057386
222	0x3d61154f	0.054951962
223	0xbba1684b	-0.004925763
224	0xbd2052de	-0.03914153
225	0xbd6e3039	-0.058151457
226	0x3d12b750	0.03581935
227	0x3d43607f	0.047699448
228	0x3d19390e	0.037407927
229	0xbd04a1a9	-0.032380734
230	0xbd25db13	-0.04049213
231	0x3d4a5f2a	0.04940716
232	0x3cec2269	0.028825002
233	0xbc19da08	-0.009390362
234	0xbd2690e4	-0.040665522
235	0x3d1e1604	0.038595214
236	0xbcbb2abc	-0.022847526
237	0xbd149dff	-0.03628349
238	0x3bdc507e	0.0067234626
239	0xbcfb214e	-0.03065553
240	0x3d6010bb	0.054703455
241	0x3cceabc2	0.025228385
242	0x3d139717	0.036032762
243	0x3d1ac31b	0.037783723
244	0x3afcabc0	0.001927726
245	0xba825fc0	-0.0009946749
246	0x3d01bce2	0.031674273
247	0x3cdb2674	0.026751734
248	0x3d6e6d97	0.05820998
249	0x3d082647	0.03323963
250	0x3d5a389e	0.05327665
251	0xbba70e30	-0.005098127
252	0xba4f5f00	-0.00079105794
253	0xbc618ff2	-0.013767229
254	0x3d80875f	0.0627582
255	0x3b8fa820	0.0043840557

model.4.weight f4 [1, 256]
0	0x3c799766	0.01523385
1	0xbe1b4352	-0.151624
2	0x3ddaad2b	0.106775604
3	0x3dc889fb	0.09791943
4	0xbe134e06	-0.14385232
5	0x39e2902c	0.00043213496
6	0x3caba034	0.020950414
7	0xbced2f50	-0.028953224
8	0xbe1b8b9b	-0.15189974
9	0xbe0c4214	-0.13697082
10	0x3d65b849	0.05608395
11	0x3dd6953e	0.104776844
12	0xbc550c70	-0.013003454
13	0xbe1f4816	-0.15554842
14	0xbe01ea1f	-0.12686966
15	0x3d103ca7	0.035214093
16	0xbe207cba	-0.1567258
17	0x3ca87b68	0.020566657
18	0x3dab12f3	0.08353224
19	0x3bf61320	0.007509604
20	0x3e192ec5	0.14959247
21	0xbd2bf48e	-0.041981272
22	0xbd568116	-0.0523692
23	0xbdf1c70e	-0.11805545
24	0xbde0a629	-0.109691925
25	0xbc8cbc03	-0.017179495
26	0xbd1b2c4c	-0.03788404
27	0xbb9539b2	-0.004553997
28	0x3e00818e	0.12549421
29	0xbd5fbcea	-0.054623522
30	0xbdcc6882	-0.09980871
31	0xbd23c658	-0.039984077
32	0x3d1f45ba	0.038884856
33	0x3cee8e98	0.029120728
34	0xbe184031	-0.14868237
35	0xbe1ae83b	-0.15127651
36	0xbe1a4061	-0.15063621
37	0xbd5061da	-0.05087457
38	0xbca60c1c	-0.020269446
39	0xbd8f4ae7	-0.06996708
40	0x3dd3d5eb	0.10343536
41	0x3e048fde	0.12945506
42	0x3d8bcc0c	0.06826028
43	0x3dbd49ec	0.09242615
44	0x3ac0e39b	0.0014716269
45	0xbbb31f4f	-0.0054663788
46	0xbdf7b9c2	-0.12095977
47	0x3dda40b4	0.106568724
48	0x3e06f889	0.13180746
49	0x3e0300f4	0.12793332
50	0xbbada250	-0.00529889
51	0xbd36e30a	-0.044650115
52	0x3c624750	0.013810948
53	0xbdff9249	-0.124790736
54	0xbe17554f	-0.14778636
55	0xbd3cf500	-0.046132088
56	0x3ccb4c68	0.024816707
57	0xbe101c09	-0.14073195
58	0x3dd831b9	0.10556359
59	0xbe061566	-0.130941
60	0xbdecf0e9	-0.115693875
61	0x3dbd03b2	0.092292204
62	0xbd55b864	-0.0521778
63	0xbce1d997	-0.027569575
64	0xbdd41b01	-0.10356713
65	0x3dd1bf1d	0.1024153
66	0x3a772093	0.0009427156
67	0xbaf7dce3	-0.0018910434
68	0x3da7acb8	0.0818724
69	0x3df683bd	0.12036846
70	0xbd6dbf18	-0.05804357
71	0x3d93f1b0	0.072238326
72	0xbdf1ffd9	-0.11816377
73	0x3db1f711	0.08689702
74	0xbd2e8009	-0.042602573
75	0xbe13f97c	-0.1445064
76	0x3d97efe2	0.07418801
77	0xbe1af520	-0.1513257
78	0xbe07a1d7	-0.13245331
79	0x3c8c0f4b	0.017097136
80	0xbe0bb5f0	-0.13643622
81	0x3db5ed13	0.08883109
82	0xbe12d969	-0.14340748
83	0x3dffeb4b	0.124960504
84	0x3c392659	0.011300647
85	0xbe24a21c	-0.16077465
86	0xbd0f4b92	-0.03498418
87	0xbd88ff39	-0.06689305
88	0xbe018e20	-0.12651873
89	0x3dd5b96f	0.10435759
90	0x3d8edf90	0.06976235
91	0x3df61084	0.12014869
92	0xbe020392	-0.12696674
93	0xbb91f6c0	-0.0044544637
94	0xbc6ca443	-0.01444346
95	0x3d600257	0.05468973
96	0x3b54a2a0	0.0032445565
97	0xbcbf2724	-0.023334093
98	0x3ddce6b4	0.10786191
99	0x3e040de7	0.12895928
100	0xbe200250	-0.15625882
101	0x3df3ce0b	0.11904534
102	0x3d1cc9bf	0.038278338
103	0xbc201338	-0.009770207
104	0xbd3a9d40	-0.04556012
105	0xbcf819c9	-0.030285733
106	0xbe24d209	-0.16095747
107	0x3e0433b7	0.12910353
108	0xb63b8000	-2.7939677e-06
109	0xbd0ec556	-0.034856163
110	0x3db3fd18	0.08788508
111	0x3cf684a8	0.030092552
112	0x3c85dec7	0.01634158
113	0xbb020f46	-0.001984553
114	0x3e0a6498	0.13514936
115	0xbd288167	-0.041139033
116	0xbe0fe4f6	-0.14052185
117	0xbdee1971	-0.11625946
118	0x3dd31d3d	0.10308311
119	0xbdf67dff	-0.120357506
120	0xbe015992	-0.12631825
121	0x3d484616	0.048894964
122	0x3d078453	0.03308518
123	0xbd83ca15	-0.064350285
124	0xbdf62ae8	-0.120199025
125	0xbd00c79e	-0.03144037
126	0x3dc0b8d8	0.09410256
127	0xbe152baf	-0.14567445
128	0x3cae4cad	0.021276796
129	0x3cfe1b10	0.031018764
130	0x3c513ae3	0.012770387
131	0x3e0ad1b0	0.13556552
132	0xbc95c7dc	-0.018283777
133	0xbd5772ca	-0.052599706
134	0x3dcc25b5	0.099681295
135	0xbde84795	-0.11341778
136	0xbb4d5160	-0.003132902
137	0xbdf47ac5	-0.11937479
138	0xbdd6ff02	-0.10497858
139	0xbe125883	-0.14291577
140	0x3d37e0bb	0.044892054
141	0x3a965656	0.0011469822
142	0x3dbbe51e	0.0917456
143	0xbe23cd5c	-0.15996307
144	0xbe25cb80	-0.1619091
145	0xba314958	-0.0006762943
146	0x3de59de3	0.11211755
147	0x3d977998	0.07396239
148	0xbe05fb20	-0.13084078
149	0xbafa868a	-0.0019113582
150	0x3bcf7b70	0.0063318536
151	0xbe2f7842	-0.17135718
152	0x3dfdb6d0	0.12388384
153	0xbc993664	-0.018702693
154	0x3dca26af	0.098706596
155	0x3d3a2a9d	0.045450795
156	0xbe01c838	-0.12674034
157	0x3d7eb5f8	0.062185258
158	0xbe1e0b1e	-0.15433928
159	0xbe04470f	-0.12917732
160	0x3d9d2e79	0.076748796
161	0x3d8ffd1f	0.07030701
162	0x3e14e4f0	0.14540458
163	0x3d02905f	0.031875964
164	0xbd468f3e	-0.04847645
165	0x3de2d093	0.110749386
166	0xbe34dac2	-0.17661574
167	0x3d399674	0.0453095
168	0xbc0d7df5	-0.0086359875
169	0x3d7fcfa2	0.062453873
170	0xbe0f5e80	-0.14000893
171	0x3dd904f7	0.1059665
172	0xbe03a040	-0.128541
173	0x3d0c5e25	0.03426947
174	0xbd68e806	-0.0568619
175	0x3d9d4bdd	0.076804854
176	0xbe124dd0	-0.14287496
177	0x39a70c00	0.00031861663
178	0xbe16f2e1	-0.14741088
179	0xbe087cdb	-0.13328879
180	0x3dc81008	0.09768683
181	0x3d8c9e95	0.068661846
182	0xbca8b094	-0.020592012
183	0xbd28bca3	-0.041195523
184	0xbd658176	-0.056031667
185	0xbdc69918	-0.09697169
186	0xbca78f65	-0.020454118
187	0x3dab9952	0.08378853
188	0x3d00ab96	0.031413637
189	0xbb3a2e60	-0.002840899
190	0xbc3b73ab	-0.011441152
191	0x3db3de94	0.08782688
192	0xbdab9188	-0.08377367
193	0xbc6dbbb8	-0.014510088
194	0xbd794a3c	-0.06086181
195	0xbcfe7864	-0.031063266
196	0xbdd4ccca	-0.10390623
197	0xbe20a2b7	-0.15687071
198	0xbddec45f	-0.108772986
199	0xbd983772	-0.0743245
200	0xbe18e890	-0.14932466
201	0xbdd7bd8f	-0.10534202
202	0xbd73930c	-0.059466407
203	0x3df6f0b4	0.12057629
204	0xbc218618	-0.009858631
205	0xbd417e12	-0.04723937
206	0xbd22c39e	-0.039737336
207	0x3dbcaa8f	0.09212219
208	0x3ce01b2c	0.027356707
209	0x3de0b2e8	0.10971624
210	0xbd77e80b	-0.060524028
211	0x3d52163a	0.05129073
212	0xbe0414d8	-0.12898576
213	0xbdbdef5f	-0.09274172
214	0x3ddf9f3a	0.10919042
215	0x3e0e987f	0.1392536
216	0xbe19787b	-0.14987366
217	0x3d81959b	0.06327363
218	0x3d110ba0	0.035411477
219	0xbd0f9431	-0.035053436
220	0xbdf21aae	-0.11821495
221	0xbb78fc20	-0.0037992075
222	0x3d64228a	0.055697
223	0xbdb1386c	-0.0865334
224	0x3cd56a00	0.026051521
225	0xbd4561d8	-0.048189014
226	0xbe327d86	-0.17430696
227	0xbd71e57e	-0.05905675
228	0x3dd2b707	0.10288816
229	0xbe250e81	-0.16118814
230	0xbe1d173b	-0.15340893
231	0xbe1746e8	-0.14773142
232	0x3db15039	0.086578794
233	0xbdb4cc28	-0.08828002
234	0x3dd31bc9	0.10308034
235	0x3d07879a	0.033088304
236	0xbe122944	-0.14273554
237	0xbdabef53	-0.08395257
238	0xbe138566	-0.14406356
239	0xbd528ff4	-0.051406816
240	0xbe212f20	-0.15740633
241	0x3d0bc98d	0.03412776
242	0x3dcee93a	0.10103078
243	0xbdbf1818	-0.093307674
244	0xbcd0ecbc	-0.025503509
245	0xbc9f7bf0	-0.019468278
246	0xbe074762	-0.13210824
247	0xbd574f7a	-0.05256603
248	0xbe03ddfb	-0.12877648
249	0xbca6d27b	-0.020364037
250	0x3d4bd796	0.049766146
251	0x3d77017c	0.06030415
252	0x3d1ef808	0.03881076
253	0x3dc378b5	0.095445074
254	0x3d8f130f	0.06986057
255	0xbceed638	-0.029154882
